chapter22/fastapi/checkpoint.pt (torch, 974308 bytes, 8 tensors)

model.0.weight f4 [256, 784]
000000 20 65 7b bc 76 b1 f0 3c 4e 3f 9f bc e0 b7 e5 ba
       -0.015343934 0.029381495 -0.019439366 -0.0017526112
000010 9e ed 93 3c ae b2 60 bc e0 71 a4 3c c4 a4 04 bc
       0.01805764 -0.013714476 0.020073831 -0.008095924
000020 e8 64 cb 3b 30 18 3a bb 40 bb 0a 3c 10 92 96 3c
       0.0062070973 -0.0028395765 0.008467495 0.018380195
000030 ff 92 80 3d 9d 21 73 3d 77 89 e6 3b 0c 13 d6 bc
       0.06278037 0.059358228 0.00703543 -0.02613213
000040 20 d9 30 bc 46 6f 5e bc 73 bc db bc a0 0a 01 bd
       -0.010793954 -0.013576334 -0.026823258 -0.031504273
000050 ba e2 a9 3c 58 c1 44 3c 30 b7 88 3c 2a 69 02 bd
       0.020737994 0.012008987 0.016688913 -0.031838574
000060 0c 76 8f 3c e8 d7 0d 3c ce fc 68 bc 4e 30 f5 3c
       0.017512344 0.008657433 -0.01422043 0.02993026
000070 23 36 c3 bc de 02 9e bc 45 76 05 3d 12 ff 9a 3c
       -0.023829525 -0.019288477 0.032583494 0.018920455
000080 95 56 af 3c ed 0e 1b 3d 48 19 cf 3d 4b 73 38 3d
       0.02140359 0.03785603 0.10112244 0.045031827
000090 d7 a5 ae 3c e8 cc a6 3d 70 ee eb 3d 61 64 dd 3d
       0.021319313 0.081445515 0.11520088 0.108101614
0000a0 03 05 5d 3e 16 07 d0 3d 73 b4 81 bd a3 c3 a8 3d
       0.21583943 0.101576015 -0.06333246 0.0824044
0000b0 31 9d a8 3d b5 3f 04 3e 82 f9 df 3d 03 56 34 3e
       0.08233107 0.12914927 0.10936262 0.17610936
0000c0 bb 2b f2 3d 7c 36 7c 3d 57 c4 79 3d d3 59 8d 3d
       0.11824747 0.061575398 0.06097826 0.06901898
0000d0 e8 6b 0d 3c ae 24 f0 3c 93 cc 07 3d 1a 51 e9 bc
       0.008631684 0.029314365 0.03315408 -0.028481055
0000e0 c0 9c a6 ba 05 72 87 bc 00 ab 1e 3d 11 6e 14 3e
       -0.001271151 -0.016533861 0.038737297 0.14495112
0000f0 a0 be 17 3e 53 be 9c 3d df 6a b5 3d 35 73 76 3d
       0.14818811 0.07653489 0.08858275 0.060168464
000100 d0 85 e2 3d 46 a3 18 3e a4 b6 9a 3b ee 85 15 3e
       0.11060679 0.14906034 0.0047214795 0.14601871
000110 a8 6a 77 3c d0 3e a3 bd 78 c7 a6 bc 6e fc 09 3d
       0.015101112 -0.07970965 -0.020358786 0.033688
000120 24 44 fc 3d 95 af dc 3d 98 f3 81 3d 6f d1 ee 3c
       0.12317684 0.10775677 0.0634529 0.0291526
000130 09 98 00 bc 86 2a 8b 3d 5b 04 8c 3d 34 86 74 3d
       -0.007848748 0.0679522 0.06836768 0.0596983
000140 4e b3 9d 3d 1b 1e 04 3d 70 14 79 3b 22 f4 9a 3c
       0.07700215 0.032255273 0.0038006566 0.01891524
000150 85 48 f3 bc 7c 75 03 3c 2e 05 70 3c d6 bc c4 3d
       -0.029697666 0.008023616 0.014649672 0.0960633
000160 e8 93 da 3d 68 36 7b 3d c4 be be 3d 63 bc 2d 3d
       0.10672742 0.061331183 0.093137294 0.042415988
000170 18 dc 85 3c ad b2 8f 3d aa c8 ad 3b 9d cc 8d 3d
       0.0163403 0.070165016 0.005303462 0.069237925
000180 7d e0 05 be d0 20 f4 bc b7 94 6f 3d bf 9d 90 3c
       -0.13073917 -0.029800802 0.058491435 0.017653344
000190 a1 dc d8 3d bc 93 50 bd 4d c4 fc bc 36 c3 bf bd
       0.105889566 -0.05092214 -0.030855322 -0.093634054
0001a0 e6 0e 74 bd fb 90 50 3e c4 a4 1e bd d3 6d a5 bd
       -0.05958452 0.20367806 -0.03873135 -0.08077588
0001b0 ba 9d 97 bc 07 a6 cd bc 51 4d 48 bd 64 f4 2d 3c
       -0.018507827 -0.025103582 -0.04890186 0.010617349
0001c0 a0 0f e3 bc 40 06 6d ba ff 48 72 3b 81 6d 0b 3c
       -0.027717412 -0.0009041764 0.0036969779 0.0085099945
0001d0 92 4a 0c bd 66 ef 84 3b 1b 62 25 bb be fa 1a be
       -0.034250803 0.004056859 -0.0025235477 -0.15134713
0001e0 65 9d 13 3c a2 16 45 3e 2d 7b ff 3d 62 92 85 3d
       0.009009694 0.19246915 0.12474666 0.06522061
0001f0 19 d3 9c 3d b6 46 05 3d 3c 15 da 3c 07 c8 24 bc
       0.07657451 0.03253814 0.026621453 -0.010057456
000200 49 ad c3 3d 10 1c 38 3b d1 f4 37 bd d3 64 cf 3a
       0.09554536 0.0028092898 -0.04491121 0.0015822895
000210 7a 4f fb 3d cc b2 c0 bb 4f 91 7a be 0e c8 85 be
       0.12271018 -0.0058806892 -0.24469493 -0.26129192
000220 e9 72 68 bd 2e ef f0 bc 3a 57 87 3c b9 94 bb 3d
       -0.056750212 -0.029410925 0.016521085 0.09159226
000230 b8 e2 d7 bb cc 81 ac bc a2 e7 97 3d 2f 13 8b bd
       -0.0065883063 -0.021057986 0.07417227 -0.06790768
000240 7a 77 9c bd 4e 64 1e be df bf 70 be fe 6b c9 bc
       -0.07639976 -0.1546795 -0.23510693 -0.024587628
000250 ce cb bd 3c 2c e9 b2 3d 3a 21 d4 3d 99 fc c5 3d
       0.02316847 0.0873588 0.103579 0.0966732
000260 04 ca cc b9 04 05 1b bc 4e f9 49 3d 58 bb 2c bc
       -0.00039060425 -0.009461645 0.04931002 -0.010542713
000270 aa 4a 3a 3d 9b 79 90 3c 57 1d f6 bd 7c 78 80 bc
       0.04548136 0.017636111 -0.12017315 -0.015682451
000280 82 e4 9a bc 8a 9d 3c bd d8 1c dc bd ac 5e 2d 3d
       -0.01890779 -0.04604868 -0.10747689 0.042326614
000290 bd 53 c6 bd 3d b8 5f bd 69 fd f6 3d 87 35 86 3d
       -0.096839406 -0.054619063 0.12060053 0.06553178
0002a0 3e a1 bb bc 61 a5 ec 3b aa 3b 4d ba 5f 85 49 be
       -0.022904035 0.007221863 -0.000782902 -0.19679783
0002b0 02 06 0a be cd 5b ee bd f5 72 4f be 45 92 c5 3b
       -0.13478854 -0.11638603 -0.20258696 0.0060293996
0002c0 84 24 87 3d a9 5b 85 bd b7 d9 4d bd 56 13 8a 3c
       0.06598762 -0.065116234 -0.050256457 0.016854923
0002d0 ef b8 ce 3b c1 6d 09 bd 7f a6 97 bd 82 dc ed bd
       0.006308667 -0.033551935 -0.074048035 -0.11614324
0002e0 bc 7f 2f be ec 66 e2 bd 11 03 fc bd 00 7a a7 bc
       -0.1713857 -0.11054787 -0.12305272 -0.020443916
0002f0 64 25 ba bd 46 05 44 be ab c6 61 3d aa b7 dc 3d
       -0.09089163 -0.19142637 0.055121105 0.10777219
000300 e8 b4 a6 3b a0 c4 2e bd 8c a4 3e bd 85 a0 b6 3c
       0.0050874837 -0.042667985 -0.046543643 0.022293339
000310 90 2c 76 3c 3f ae c1 bd 93 24 cd 3c 0c 3b 80 be
       0.015025273 -0.09457063 0.025041854 -0.2504505
000320 8c f3 63 be 91 10 d0 bd 0f 59 34 be 84 e2 2e bd
       -0.22260875 -0.1015941 -0.17612098 -0.04269649
000330 21 6b 25 3d 47 23 93 bb ff 8a b8 3d 92 bf cc 3d
       0.04038537 -0.0044902894 0.090108864 0.09997477
000340 8f 09 89 bd b2 78 f2 bd 42 53 1b be 24 2a 01 be
       -0.06691276 -0.11839427 -0.15168479 -0.12613732
000350 8b 69 3f be d0 56 dd bd 85 6f 3f 3d d0 25 25 3d
       -0.18692605 -0.10807574 0.046737213 0.040319264
000360 33 7f b1 bd d8 81 4b bd db 7b f4 3d 90 d4 9b bd
       -0.086668395 -0.049684376 0.11937686 -0.076089025
000370 59 6a 0f be 51 03 03 be e0 41 4b bd c9 11 95 3d
       -0.14005412 -0.12794234 -0.04962337 0.07278783
000380 33 aa 19 3d 02 52 e8 bd 31 d4 5d bd 8b 54 0d be
       0.03751583 -0.11343767 -0.05415744 -0.13801782
000390 61 0b 1a be b3 a2 c4 bd 87 0d 34 be be bd 86 bd
       -0.15043403 -0.09601345 -0.17583285 -0.06579159
0003a0 ec 3e 85 bd c5 3a 02 3d 3d 0b 87 bc bb 71 d7 3d
       -0.06506142 0.03179433 -0.016484851 0.10519739
0003b0 eb 03 30 bd 1e ca 08 be c9 17 94 be c6 56 77 be
       -0.042972486 -0.13358352 -0.28924397 -0.24154195
0003c0 82 82 99 bd 44 83 15 bd c4 29 e6 bd ce 46 16 bd
       -0.074955955 -0.036502138 -0.11238435 -0.03668862
0003d0 b7 91 36 3d 74 02 2b 3e bb da 10 bd f6 b9 71 be
       0.04457256 0.16700155 -0.035364848 -0.23606095
0003e0 ed 85 8b be b3 1b fa bd fc b0 8a bd 54 e3 ad bd
       -0.27250615 -0.122123145 -0.06772038 -0.08490625
0003f0 00 a1 d9 bb e3 ea 0f be 84 46 7f 3d 68 36 fe bd
       -0.006641507 -0.14054446 0.06232311 -0.12412721

model.0.bias f4 [256]
000000 42 76 e1 bc f4 81 57 bd df 68 52 3e 66 f2 47 3c
       -0.02752221 -0.052614167 0.20547818 0.012203788
000010 46 81 2d bd a1 de 8f 3b 45 6e c7 bd a8 3e b3 3d
       -0.042359613 0.004390553 -0.09737829 0.08752185
000020 c9 c7 b0 bc b3 76 2e 3d 49 bf be bb fe ed 72 3a
       -0.02157964 0.04259367 -0.005821143 0.0009267031
000030 76 dd ad bd 72 cc f4 3d 2c c5 24 be 92 27 2c ba
       -0.08489506 0.11953057 -0.1609084 -0.0006567176
000040 ec ea 2d 3e a5 10 e0 bd 9a c2 86 bd 34 c7 9e 3d
       0.16984147 -0.10940675 -0.06580086 0.07752839
000050 31 5a 34 3c cb db 0a 3c ba b8 17 bc bc cd eb ba
       0.011007831 0.008475254 -0.009260351 -0.0017990391
000060 72 e6 5a 3c 03 c3 18 3c c1 07 7e bc 7e d8 08 3d
       0.0133606065 0.009323838 -0.015504778 0.033409588
000070 d1 68 16 3d 21 0d 17 bd 24 e3 49 3d 6e a4 ad 3c
       0.036721054 -0.036877755 0.049288884 0.02119657
000080 05 84 9f 3d 77 aa c9 3d bb 10 53 3c b8 d3 08 be
       0.077888526 0.09846967 0.012882407 -0.13362014
000090 fd a8 30 3d a6 fe 29 3e 0c de 7c bd ef 77 27 bd
       0.04312991 0.16601047 -0.061735198 -0.040885862
0000a0 5c 31 31 bd 97 58 b7 3d 48 10 80 3d 80 38 9f 3c
       -0.043259963 0.08952444 0.062531054 0.019436121
0000b0 cc 60 9f 3c e0 85 8a 3c 51 4d 8c 3d 6c 89 0f be
       0.019455336 0.01690954 0.068506844 -0.14017266
0000c0 5f 4b 00 bd 09 41 a4 3b 77 63 a4 3d a1 42 fd 3d
       -0.03132188 0.0050126356 0.08026784 0.12366224
0000d0 6c 5a 54 3d 57 56 2b 3d 2c 45 72 3d 54 da 35 bd
       0.051844046 0.041830387 0.059148 -0.044397667
0000e0 5c 05 08 3d 46 12 9f 3c 62 af 46 3d dc c3 bb bc
       0.033208236 0.019417893 0.0485071 -0.022920541
0000f0 59 04 23 bd 14 b3 86 3d 51 02 a8 3b 80 a8 15 bd
       -0.039799068 0.06577125 0.0051272293 -0.036537647
000100 da b8 48 3d 94 e2 46 3d 13 8c ac 3c 8d 56 12 3e
       0.049004413 0.048555925 0.021062886 0.14290829
000110 48 30 85 bd 69 68 a9 bc e1 57 78 3d d7 ee c2 3b
       -0.065033495 -0.02067967 0.060630683 0.005948882
000120 ff 68 1b bd a9 5a 86 3c f5 cf 35 bd eb 9b 39 bd
       -0.03794193 0.016400652 -0.044387776 -0.04531471
000130 96 6b f1 bd 83 cf 94 bd 83 29 4b bc d8 09 5e 3d
       -0.117880985 -0.07266142 -0.012400034 0.054208606
000140 7a ca 66 bc fa c0 24 3e 5e a5 3a 3e f1 d3 17 3d
       -0.01408636 0.1608924 0.18227145 0.037067357
000150 e8 bf 03 3e e4 76 30 3b 59 43 e1 3c 3a 6f 17 3d
       0.12866175 0.0026926333 0.027497934 0.03697131
000160 0a 95 0c 3e 71 ce d1 3d 00 4c f2 3c 23 97 07 3c
       0.13728729 0.10244454 0.029577255 0.00827578
000170 2c 05 75 bc 52 28 a0 3d d3 d8 04 3e 38 03 99 3c
       -0.014954846 0.078201905 0.12973337 0.018678293
000180 13 61 81 3d c5 9b ad bd 7e 67 a7 3c b3 d2 17 be
       0.063173436 -0.08476976 0.020435091 -0.14826469
000190 27 3a 9b 3d e1 2f 07 3d d2 0f 1e bd 4e e0 19 3d
       0.07579451 0.033004645 -0.038589306 0.03756743
0001a0 f5 5e 5e bd f3 cf 89 3a 46 4c 9e 3d f3 de 59 3d
       -0.054289777 0.0010514244 0.07729392 0.053191137
0001b0 87 75 db 3d 05 5c 03 be d2 1a 05 bd ea 75 c1 bd
       0.10715776 -0.12828071 -0.03249628 -0.094463184
0001c0 cc a6 f3 bc cb 1e e1 bc 55 a3 65 bb d9 35 b1 3d
       -0.02974262 -0.027480504 -0.003503998 0.08652849
0001d0 2b 88 e3 3d 74 11 0f bc b4 88 e7 3a d0 f8 99 3d
       0.11109956 -0.0087321885 0.0017664642 0.0751816
0001e0 48 68 03 3d 2e dd 23 bc 8f d4 e1 3c a8 4f 6f 3c
       0.032081872 -0.010001464 0.027567176 0.014606394
0001f0 3d 84 e0 bc 5a 2a 26 3d 1c 43 d4 bc 68 52 d4 bb
       -0.027406806 0.040567733 -0.025910906 -0.00647955
000200 92 34 59 bd 1e e3 c5 bc 2c a9 00 bd a9 1a 05 3e
       -0.05302865 -0.02415615 -0.031411335 0.12998451
000210 1b 2b a1 bc 80 1a 2c 3e 8e 10 56 bc bf 84 a9 3c
       -0.019673875 0.16806984 -0.01306547 0.020693181
000220 b6 3e df 3b 2f f8 6f 3d 7e 7e 21 3d 12 af 04 3e
       0.0068128956 0.058586296 0.039427273 0.12957409
000230 ca fd be 3d 13 ae 0a be f8 a2 8d bd a7 b5 c7 3c
       0.0932575 -0.13542967 -0.069158494 0.02437861
000240 09 2b 5f 3c 91 ab 96 3d fa 64 dd bc dd 1c 04 3d
       0.0136211 0.073569424 -0.027025688 0.03225409
000250 f9 d8 43 3b c7 aa 39 3d be 9b eb bd 05 5a d2 3c
       0.0029883964 0.04532888 -0.11504315 0.02567769
000260 d2 b1 17 bd 70 a5 58 3d 13 07 82 3c 7c 8e e6 bb
       -0.037034817 0.05289215 0.015872514 -0.0070360284
000270 4a 65 c0 3c 87 06 4c bc 5a f2 07 be 91 b6 cb bc
       0.023485798 -0.012452728 -0.13276044 -0.024867328
000280 c1 da c0 3d 10 d1 7f 3d 38 ab cc 3c 60 3b a2 3d
       0.09416724 0.062455237 0.024983987 0.07921481
000290 6e 98 7f bd 63 f8 e0 bc f7 c9 60 bd 28 f9 f5 3c
       -0.062401228 -0.02746219 -0.05488011 0.030026034
0002a0 27 ec f9 3c 76 93 f6 bd 2a 79 a7 bd 2e 3c 1e 3d
       0.030508114 -0.12039845 -0.08177407 0.03863161
0002b0 b1 54 97 bd 86 7d 97 bd b4 29 96 bc 4c 73 6a 3d
       -0.073892005 -0.073969886 -0.018330432 0.057238862
0002c0 1d 70 61 3c 23 25 bc 3c 42 35 e1 bb 72 a5 ee 3c
       0.01375964 0.022966927 -0.006872804 0.029131625
0002d0 b0 05 32 bc 01 51 4f 3d 25 18 49 3d c4 1c 11 3c
       -0.010865614 0.05061436 0.04909529 0.008856956
0002e0 9f 3a 1a bd 77 12 85 bc f7 49 e9 bc 10 1e bc 3d
       -0.03765356 -0.016244156 -0.028477652 0.091854215
0002f0 6f 87 03 bd c0 ab 18 3e 30 93 cc bb 7a 4f 28 bd
       -0.03211158 0.14909267 -0.006243132 -0.04109142
000300 e5 71 ca 3b d9 a0 8b 3d 5d e8 40 bc ac 23 cc bb
       0.006178128 0.06817789 -0.01177415 -0.0062298384
000310 e6 6b 2b bd 7f 6e 87 bc f5 fb 0d 3d c2 d7 70 3d
       -0.041850947 -0.01653218 0.034664113 0.058799513
000320 a1 13 82 bc 04 91 53 bd 9c eb a7 3c bb 3b f1 3d
       -0.0158785 -0.05165197 0.02049809 0.11778971
000330 9f 65 ad 3c 09 a1 d0 3c cf e8 8e 3b 72 a1 8f bc
       0.02116662 0.025467413 0.004361249 -0.017533038
000340 65 49 00 3d 4c e0 3b 3d 1a 7c f7 3c 0a ee 7f bb
       0.031319994 0.045868203 0.030210543 -0.0039051794
000350 ad 9c 37 bc 44 4a a4 3d 61 1d 0d bd 07 28 f9 bb
       -0.011206788 0.080219775 -0.034451846 -0.0076036486
000360 03 75 2d bd 88 e3 d0 bc 00 30 19 3c 17 a6 f1 3d
       -0.04234792 -0.02549912 0.009349823 0.11799257
000370 51 c7 46 3c 77 50 ff bc 7d b9 1b 3d 38 84 9e bd
       0.012132482 -0.031166298 0.038018692 -0.077400625
000380 79 4c 9c 3d 23 b0 db ba a1 a1 da 3c 31 be 2d bc
       0.076317735 -0.0016760867 0.026688399 -0.010604427
000390 de d6 64 3d 36 00 5d bd 68 ba d8 bd 4e 26 05 be
       0.055868976 -0.05395528 -0.10582429 -0.13002893
0003a0 12 cf 78 bd 16 58 97 3d ae 60 82 3c e5 29 1e 3d
       -0.060744353 0.07389848 0.015915241 0.038614172
0003b0 ac 45 73 bd 09 15 af bd 3b 83 64 3c 13 d8 00 bd
       -0.059392616 -0.08548934 0.013947303 -0.031456064
0003c0 a1 4c 39 bd 18 80 5f 3c b8 bb 9e bd f0 96 46 bd
       -0.045239095 0.01364138 -0.07750648 -0.04848379
0003d0 d0 d1 49 bd 9c 93 b0 3d 4f 52 04 3e 0b 14 0f 3d
       -0.04927236 0.08621904 0.12922023 0.034931224
0003e0 21 a4 6d bd ac 49 d6 3d 7b 32 44 3e b0 b3 fc 3c
       -0.058017854 0.104632705 0.19159882 0.0308474
0003f0 4c 4f db bc 1f 97 ca 3b e2 6e 92 bd 79 d5 da 3d
       -0.02677121 0.006182566 -0.071500555 0.10685248

model.2.weight f4 [128, 256]
000000 a2 f9 ba bb 93 08 b3 bd 7d 70 e2 3b a9 26 01 3d
       -0.005706028 -0.0874187 0.0069103823 0.03153101
000010 42 74 02 bd 1d 72 72 bd e3 56 1f 3c 51 bc b7 3d
       -0.031849153 -0.05919086 0.009725305 0.089714654
000020 8c b8 44 bc 5e aa b9 3d 40 5a 06 39 85 57 ae b9
       -0.01200689 0.09065698 0.00012812857 -0.00033253073
000030 fb 11 8f bd 91 ec 3a 3c b2 69 57 3e f2 e7 bf 3d
       -0.069858514 0.011408941 0.21036413 0.09370412
000040 38 ea 8e 3d 98 03 e7 3b 60 7a 0b be 2b 39 00 3d
       0.069782674 0.007049989 -0.13620901 0.03130452
000050 e5 e0 45 bd 4f 68 45 3e 90 37 18 3e 52 df 28 3e
       -0.04831018 0.19278072 0.14864945 0.1649144
000060 1f 01 31 3d f7 96 7e 3e 53 27 4e 3c a5 84 20 3e
       0.04321396 0.24862276 0.012582618 0.156756
000070 a0 fa 53 3e 77 75 8b bc fa b9 d2 3d 6f 2d 4e 3d
       0.20701075 -0.017023785 0.102893785 0.050336298
000080 64 05 46 be eb 4d b2 bd c6 de 0f bd 0d a6 29 3e
       -0.19337994 -0.08706268 -0.035124563 0.1656725
000090 c0 07 a0 bd a1 ee 14 be 47 4b 09 bd 91 20 d8 3d
       -0.07813978 -0.14544155 -0.033519056 0.105530865
0000a0 f6 5e 78 bb a5 60 c3 3c e1 03 50 bc 77 7a 13 3e
       -0.0037898398 0.023849795 -0.012696237 0.14402185
0000b0 e8 15 87 be 3a 16 f3 3c a7 f0 e0 bd 18 f2 ad 3c
       -0.263839 0.029673684 -0.10983401 0.021233603
0000c0 fb b5 0c bd ad 6b b3 3d f5 2c 51 be 96 3b 65 3e
       -0.034353238 0.08760772 -0.20427306 0.22386011
0000d0 24 59 50 3e 6e 7f 3c be 7b 25 85 3c e5 cb c3 bc
       0.20346504 -0.18407986 0.016253224 -0.023900935
0000e0 81 b5 07 be f9 63 1d bc 6b 80 a5 be f8 88 9d bc
       -0.13252832 -0.009606355 -0.32324538 -0.01923035
0000f0 65 0b 80 bd 20 91 be 3b 35 f9 1e 3d 61 6a 86 3d
       -0.06252173 0.00581564 0.03881188 0.06563259
000100 ac 24 f8 3d 81 dc e5 bc 22 e3 87 bd 92 61 72 3e
       0.121163696 -0.028059246 -0.06635119 0.23670033
000110 7f 1e 50 3d b4 14 76 bd 23 54 90 3d c3 6d 83 3e
       0.050810333 -0.060078338 0.07047298 0.2566968
000120 19 83 bc bd c6 40 57 3d 93 a0 4a 3c 42 11 00 3e
       -0.092046924 0.052552007 0.012367385 0.12506583
000130 88 a3 b6 3d 7a 8d ae bd 86 a8 b2 3c 8e 55 76 be
       0.0891791 -0.08523078 0.021808874 -0.24056074
000140 3c d0 bf 3d 5c 32 f7 3d 24 1e e0 bd 07 b0 62 bd
       0.093658894 0.12070152 -0.10943249 -0.055343654
000150 59 9c 0c 3d 2d de 39 be 6c 67 06 3d 49 88 60 bd
       0.034328792 -0.1815116 0.032813475 -0.05481747
000160 e5 c4 38 3d ef 71 04 3d 66 25 28 be 65 15 02 3b
       0.04510965 0.032335218 -0.16420516 0.0019849178
000170 ee 5d 46 bd 32 78 9d 3c f1 f7 45 be e1 55 02 3d
       -0.048429422 0.019222353 -0.19332863 0.03182018
000180 38 56 98 3d c4 21 72 3d 85 db 9d 3d 7a 1c fd bd
       0.0743832 0.059114233 0.07707886 -0.12358947
000190 15 52 64 3d 81 26 eb 3c 0c e1 81 3d 78 26 0f 3e
       0.055742342 0.028704884 0.063417524 0.13979518
0001a0 e1 59 08 bd 2a d4 1a 3b 06 ed 55 3d 4f 77 3d 3d
       -0.03328884 0.0023624995 0.052227996 0.04625636
0001b0 f1 cb 90 3d d0 51 dd 3b c0 6d c3 3d a2 cf 09 3d
       0.07070149 0.0067541376 0.095424175 0.03364528
0001c0 ee f5 a2 3d 61 a7 79 3d fc cb c7 3d a6 3f 46 bd
       0.079570636 0.06095064 0.09755704 -0.048400544
0001d0 0f 0a c8 3d 35 7e 2d 3d dc 34 61 3d ce ed 91 3d
       0.097675435 0.04235669 0.05498205 0.07125436
0001e0 e3 de 80 3d 0e 01 c5 3d fd f5 38 bd ef 7f a8 3d
       0.06292512 0.09619342 -0.045156468 0.082275264
0001f0 24 c3 3d 3e b9 cb 84 3d d1 fe a2 bd c9 a0 62 3c
       0.18531471 0.064841695 -0.079587586 0.0138322795
000200 12 c4 b3 3d 22 a4 02 3d bf c5 2a 3d a7 41 15 be
       0.08777632 0.03189481 0.04169249 -0.14575826
000210 1c c2 14 bb 23 00 07 be 36 e9 d2 bd 10 19 34 bd
       -0.0022698706 -0.13183646 -0.10298388 -0.043969214
000220 ea 07 a1 3e ae 03 2b be 3d b6 b0 bd 64 74 87 bd
       0.3145135 -0.16700622 -0.08628509 -0.066139966
000230 23 b5 8c 3d 4d bf 79 3b b2 5f e3 3d 81 5c a3 3d
       0.068704866 0.003810841 0.11102237 0.07976628
000240 90 99 10 3e ff cd 6e be 43 13 11 be 2c f1 7a be
       0.1412108 -0.23320769 -0.14167504 -0.24506062
000250 5c e4 ac bd 92 f4 b0 3d a3 3c bb bd fa c1 63 3d
       -0.084419936 0.08640398 -0.09142425 0.055604912
000260 8a 77 95 3d de 9b 50 3d 17 33 d8 3c 3f 44 1f 3e
       0.07298191 0.050929897 0.026391549 0.15553378
000270 1a 08 cc bd b9 83 09 3e 0e 15 c3 3d 78 93 2a bd
       -0.09962483 0.13429154 0.095255 -0.041644543
000280 51 87 6d 3e fa 00 e6 bd 2f 63 61 3e cb e3 21 bd
       0.2319615 -0.11230655 0.22010492 -0.03952388
000290 bb 18 4c 3e 98 50 03 3a 2a fb 3a bd fb fe 8f be
       0.19931309 0.0005009263 -0.045649685 -0.28124222
0002a0 f1 80 82 bb 60 a5 46 bd 69 e1 a8 3d 06 1f b8 bd
       -0.003982656 -0.048497558 0.082461186 -0.08990292
0002b0 68 36 b6 3d 4a cd bd 3d e8 e6 ce 3d 2c 91 23 be
       0.08897096 0.092676714 0.101026356 -0.15973347
0002c0 a4 db 9a 3d 09 86 a0 3c e0 c6 61 bd 5f 6d f6 bd
       0.075614244 0.019595163 -0.055121303 -0.1203258
0002d0 31 32 a7 3d 17 11 1c 3e 7b 3e a4 ba 9b 3b 3b bc
       0.0816387 0.15240894 -0.0012530828 -0.011427785
0002e0 73 20 ff bc d0 f4 2c bd 4f 68 9e bd 67 89 0c 3e
       -0.031143403 -0.04222566 -0.07734739 0.1372429
0002f0 29 67 35 3d e0 76 86 3c 31 7c bf bc da 1e a6 3c
       0.044287834 0.016414106 -0.023374649 0.020278383
000300 e7 57 24 be ca a4 72 3d 87 46 6e 3d 62 1e f9 3c
       -0.16049157 0.059239186 0.05817273 0.030409995
000310 01 a6 3d 3d 3b 40 5d 3e 18 44 f9 bc d6 c4 25 3b
       0.04630089 0.21606533 -0.030427977 0.0025294325
000320 cc 09 3d 3d 15 5b 28 bc 2b d8 fd bd 44 b7 7b bd
       0.04615192 -0.010275622 -0.123947464 -0.061454073
000330 30 bb 1a 3e bf 62 1c 3e aa 10 67 3d cf 5f 7e 3c
       0.15110469 0.15272044 0.056412376 0.015525772
000340 51 a1 97 3d 18 d0 21 bd 3c 7f 67 3e a6 44 60 bd
       0.074038155 -0.039505094 0.2260713 -0.05475297
000350 e2 90 5c 3d 55 0f 8f 3c 64 e4 b8 bd 69 42 66 be
       0.05384911 0.017463366 -0.09027937 -0.22486271
000360 68 e0 41 ba be 8a a6 3c d5 29 cc 3d fc b6 a5 3c
       -0.0007395805 0.02032983 0.09968916 0.020228855
000370 36 f8 61 3d 66 e8 dc 3d 82 2c 5c be c8 24 8c 3c
       0.055168353 0.10786514 -0.21501353 0.017107382
000380 89 61 21 bc c2 8a 9f 3d 3c 49 01 be 84 3f 94 bd
       -0.009849914 0.07790138 -0.12625593 -0.07238677
000390 26 3a af bd 33 b4 39 bd c3 5b 92 3d f6 06 8e 3d
       -0.08556013 -0.045337867 0.071464084 0.069349214
0003a0 97 b4 2b bd 80 d4 81 bd 61 0a a0 bd 57 ab 71 3e
       -0.04192027 -0.06339359 -0.078144796 0.23600517
0003b0 17 d4 2a 3d 4e 35 fd 3d d0 81 a2 bc 9f 43 08 be
       0.04170617 0.12363683 -0.01983729 -0.13307045
0003c0 27 1d e4 3d 50 6a 00 3d c0 af e0 3d f9 89 24 3e
       0.11138373 0.031351388 0.10971022 0.16068257
0003d0 72 ba b1 bd 44 41 6a be 5f 8c 20 3e e2 7c f8 bc
       -0.0867814 -0.2287646 0.15678547 -0.030332986
0003e0 d2 53 15 be 76 30 be 3d 43 d7 1e be b3 e8 15 3e
       -0.14582756 0.09286587 -0.15511803 0.14639549
0003f0 e5 1b 58 3d 2c 12 ae be 31 09 12 bc e8 f1 dd bd
       0.052760977 -0.3399824 -0.008913324 -0.108371556

model.2.bias f4 [128]
000000 cf 63 c3 bd 6e da c1 3d 80 e3 c4 3c 62 84 3a 3c
       -0.09540521 0.0946549 0.024034262 0.011384102
000010 c3 63 69 3d f8 b1 f8 3c 77 d4 a7 3d 75 1b 8d 3e
       0.056979906 0.0303583 0.08194821 0.2756001
000020 70 42 c7 3d 9b fc b5 3d 51 9e 8f bd bc e4 cd bb
       0.09729469 0.08886071 -0.07012618 -0.006283371
000030 06 5f 35 3d 02 30 db bd ed c6 68 bd 33 1e eb 3d
       0.044280075 -0.10702516 -0.056830335 0.114803694
000040 6f eb f6 bd 6d 40 21 3e 9e dd 01 3d d9 bb dd 3d
       -0.12056624 0.15747233 0.03170549 0.10826845
000050 ed ed f0 3d 69 cc 2a 3e b4 16 74 3d 4d ad 5a 3e
       0.11764131 0.16679539 0.059591964 0.21355172
000060 2f e7 94 bd 51 fa 2f 3e e0 7c 3e 3e 8e 3e ce 3b
       -0.07270657 0.17185332 0.18602324 0.006294078
000070 53 38 9f 3c d8 3a 5a 3e f9 2e e6 3d 83 3d dd 3d
       0.019436037 0.2131151 0.11239428 0.10802748
000080 1c cd 14 3e ca a6 01 3d fb 82 17 3e 08 77 1d 3e
       0.14531368 0.031653203 0.14796059 0.15377438
000090 2d 28 c2 3d 9a 47 3d 3d 17 6e e9 bd 50 cb e9 3d
       0.09480319 0.046210863 -0.11397951 0.11415732
0000a0 5b e4 4b bd 1d f7 90 3d ae 1b e9 bd 3e 7d ef bd
       -0.049778324 0.07078383 -0.113822326 -0.1169381
0000b0 7c 94 25 be fa 4a bf bd 50 22 16 3e 02 7e ce bd
       -0.16169924 -0.093404725 0.14661527 -0.10082628
0000c0 7d 28 18 3d 4b 40 21 3e 7e 54 69 bd 28 6a c3 3c
       0.037147988 0.15747182 -0.056965344 0.02385433
0000d0 be 3b a5 3b 43 a1 ac 3d 2a e2 65 3d 76 58 8e 3d
       0.005042522 0.08429196 0.05612389 0.06950466
0000e0 8b ba 30 bd 11 bf 14 3e 21 cf 24 3e cf df 0d 3e
       -0.04314665 0.14526011 0.16094638 0.13854907
0000f0 e1 a2 b9 3d b0 84 d1 3c 0f 18 87 3d 90 e5 a0 3c
       0.0906427 0.025575966 0.06596386 0.019640714
000100 7d 3a e8 bc 9b 4f 10 3e 43 38 5c bc 92 c2 eb 3c
       -0.028348202 0.14092867 -0.013441148 0.028779302
000110 3c 89 17 3e c4 1c cf bd bd 9b b2 bd 65 72 15 3e
       0.14798445 -0.101129085 -0.08721111 0.1459442
000120 2e 08 86 3c a5 9c 3c bd 8b 6c 2b 3d d0 f6 bc bc
       0.016361322 -0.046047825 0.04185156 -0.023066908
000130 ea a3 8d 3d 78 1d 83 bd 91 8e 81 3d 4b b8 98 3d
       0.0691603 -0.06402105 0.063260205 0.07457026
000140 63 8c 1b 3e bb c0 52 bd c3 5e 8d 3b 64 9b 22 3d
       0.15190272 -0.051453333 0.004314275 0.039698973
000150 bb f9 1c 3e e7 4c ac bd 78 31 29 bc c4 93 16 3e
       0.1532964 -0.084131055 -0.010326736 0.14704806
000160 a4 3c 34 3d 3f 16 98 3d 88 ff 23 bb f6 30 7f 3d
       0.044003144 0.07426118 -0.0025024135 0.062302552
000170 c5 de 22 3e bd 2a 60 3d 5e 43 5b 3d 91 60 27 ba
       0.15905292 0.05472826 0.053531043 -0.0006384934
000180 09 ce a6 bc 42 c7 b1 bd 49 af b2 bd ec 02 b5 3c
       -0.020361917 -0.086805835 -0.08724839 0.02209612
000190 54 85 ee 3a eb 0a b1 bd 6d f4 05 bb 0c 03 24 3e
       0.0018197694 -0.086446606 -0.0020439879 0.16016787
0001a0 69 04 3c 3c db 09 ce 3d b9 60 b4 3d 79 b5 86 3b
       0.011475661 0.100604735 0.08807511 0.0041109887
0001b0 5c 8e 72 bd 98 ab 01 be dc c0 0c 3e 5a 26 96 3c
       -0.059217796 -0.12663114 0.13745445 0.018328834
0001c0 49 6d 96 3d 66 5f da bd 5b 50 d7 3d ab 23 28 3d
       0.07345063 -0.10662727 0.105133735 0.04104964
0001d0 86 ac 47 3d 3a 6d 91 bc 73 dc 9f bd 41 dd 51 3e
       0.048748516 -0.017752279 -0.07805719 0.20494558
0001e0 03 3a bc bd b8 5b f8 bc e9 3b e6 3d 9f 3d 49 3b
       -0.09190752 -0.030317172 0.11241896 0.0030706895
0001f0 d4 47 c3 3d 79 83 fc bd d8 2e 3c ba ca c1 f7 bd
       0.095351845 -0.12329764 -0.0007178611 -0.12097509

model.4.weight f4 [64, 128]
000000 ae 56 ad 3d e9 08 0f 3d d5 a8 ef bd f4 07 d8 3c
       0.084637985 0.034920607 -0.11702124 0.02637098
000010 84 a5 d1 bc 73 cc ef 3d 45 f5 b7 bd 61 09 f3 bd
       -0.02559162 0.117089175 -0.08982328 -0.11867023
000020 0e 84 bb bc 03 f8 0b bd 19 3a 84 3c 9d f1 8b bb
       -0.022890117 -0.03417207 0.016140984 -0.004270746
000030 44 df be 3c a1 42 f7 bc a4 27 9c 3d 94 32 e9 bd
       0.02329982 -0.030183138 0.07624748 -0.113866
000040 6c 82 3b 3e 55 06 9d 3d 6d d1 9c 3d ed ed 52 3d
       0.18311471 0.07667223 0.07657132 0.051496435
000050 b2 93 16 3d d1 30 8e be 68 d0 78 3c 4c 8e 0a 3d
       0.036761947 -0.2777162 0.015186407 0.03382711
000060 53 b8 43 bc 0a d4 27 b9 2b 4a dd bd ea 31 75 3d
       -0.011945802 -0.00016005352 -0.10805162 0.059862055
000070 09 18 dc 3d 32 0d d1 bd 4d 2b bb bd cb 5f 00 3e
       0.10746772 -0.10207595 -0.09139118 0.12536542
000080 92 87 99 bd ae 67 bf 3d 9a be c5 bd ed 7c 06 bd
       -0.07496561 0.09345947 -0.09655495 -0.032833982
000090 21 aa ed bd 0a b5 27 bd dc ef e1 3c 67 7d c0 3d
       -0.11604715 -0.040944137 0.027580194 0.093989186
0000a0 d7 ec 97 3d 91 81 a4 3d 46 0d 13 3e 06 c3 62 be
       0.074182205 0.08032525 0.14360532 -0.22144708
0000b0 70 2b 1a 3d 78 8e b2 3d a2 1e fc bd 3d 6e 98 3e
       0.03763908 0.0871858 -0.1231053 0.29771605
0000c0 ff 96 7d be 8b 61 09 bd 98 4a 16 3d 46 48 ac bc
       -0.24764632 -0.03354029 0.036692232 -0.021030556
0000d0 76 ca d0 3c fd 75 82 bd ac 92 c8 bc 6b a5 c9 3d
       0.025487166 -0.06370161 -0.024484001 0.09846004
0000e0 9f 8e ef 3d 50 e2 88 bd 5c 2e 76 bd a9 96 28 be
       0.11697125 -0.06683791 -0.060102805 -0.16463722
0000f0 3d f7 da bd 96 5b 34 3d a0 a5 8b 3c b0 56 27 3e
       -0.10691688 0.044032656 0.01704675 0.16341662
000100 e5 08 c7 3d e6 76 42 bd a5 20 03 3e 44 da 09 be
       0.09718493 -0.04747667 0.12805422 -0.13462168
000110 62 e6 96 bd fc cc be 3c e7 ac 14 3e 9a 42 fc bd
       -0.07368161 0.023291104 0.14519082 -0.12317391
000120 66 0e ee 3d b4 0d 78 bd 2c 78 65 3d 49 33 e3 bd
       0.1162384 -0.060559943 0.056022808 -0.11093766
000130 af 51 87 bd 8b 12 8e bd e7 93 cf bd cc fd 08 be
       -0.06607377 -0.069371305 -0.10135632 -0.13378066
000140 ea a8 e1 3c b6 ef fc 3c e9 6e 08 3e da 6f 2e 3c
       0.027546365 0.030876022 0.13323559 0.010646785
000150 02 88 a2 bd 05 57 82 ba b7 95 2a 3d dc 69 ea bd
       -0.07936098 -0.0009944147 0.041646685 -0.11445972
000160 2a 74 5a 3e e1 c9 55 bd 03 8f c0 3e 86 c6 53 bd
       0.21333376 -0.05219448 0.3760911 -0.051703
000170 31 43 8f 3d 90 07 24 be da 00 cc bc 40 e5 9e 3d
       0.069952376 -0.1601851 -0.02490275 0.0775857
000180 d4 8c 7a 3d b3 d0 a6 3e f9 ef 47 bd 5f db 45 bd
       0.06116946 0.325811 -0.04881284 -0.04830491
000190 15 1a 83 bd 52 01 87 3e c9 7a b4 3d 95 8b ae bd
       -0.06401459 0.26368195 0.08812482 -0.08522717
0001a0 bc 46 31 3e 32 60 5c 3c 11 80 b0 3d 45 17 61 bd
       0.1731214 0.013450669 0.08618177 -0.054953832
0001b0 0e 79 89 3e 57 2a 59 3d 33 58 62 bd be ad d1 bd
       0.2685017 0.053018894 -0.055259895 -0.10238217
0001c0 21 ee 89 bd e6 b7 bc bc bf a7 ec bb 6e bd 02 be
       -0.067348726 -0.023036908 -0.0072221453 -0.12767574
0001d0 a2 ef 8f bd c1 ac 6c 3b 61 9c 16 3d 11 3c e1 bd
       -0.07028128 0.0036113712 0.03677023 -0.10997785
0001e0 70 51 aa bd 10 3f 86 3e ff 49 82 be 64 45 6f bd
       -0.08316314 0.26219988 -0.2544708 -0.058415785
0001f0 36 f1 6f 3d ae 55 92 3d df 29 68 3c dd 29 dc 3a
       0.058579646 0.07145248 0.014170139 0.0016797144
000200 60 2d 7d 3d 88 9f 95 be 1a da 48 bd 2e 82 e4 3c
       0.06181085 -0.29223275 -0.049036123 0.027894106
000210 0d b7 76 bc 08 b8 85 be 93 e6 c5 3d 63 41 a8 bd
       -0.015058291 -0.26116967 0.09663119 -0.082155965
000220 d9 c6 5c bd 5c 26 79 bd d5 ce cd bd 7f 96 3b 3e
       -0.053900573 -0.060827598 -0.10049216 0.18319128
000230 0e d0 6b bd 44 8e 89 bd 31 31 a3 be e1 b5 9b bd
       -0.057571463 -0.06716588 -0.31873468 -0.0760305
000240 55 f0 3d be 5e 61 88 3d b6 18 9d 3d 17 da 1a 3c
       -0.1854871 0.06659196 0.07670729 0.009451411
000250 72 04 64 bd 03 d6 1c 3d b4 61 85 3d db ae 40 3e
       -0.055668302 0.038290035 0.06512776 0.18816702
000260 d1 42 9c 3b 7f 0a 95 bd 2d 68 e9 3d bc 22 b0 be
       0.0047687073 -0.072773926 0.11396823 -0.344015
000270 25 de 25 bd ac b6 33 ba 62 bf af bc 01 ed 22 bd
       -0.040495057 -0.00068555283 -0.021453563 -0.039776806
000280 be a3 37 bd 72 f5 e6 bd 4e 83 54 3e f8 83 a8 bd
       -0.04483389 -0.11277284 0.20753214 -0.08228296
000290 c3 ef 87 3d 4c 75 a2 3b 1c 43 2d 3e cd ee 4b 3d
       0.06637528 0.0049578305 0.16920131 0.049788285
0002a0 fc b5 33 3c 13 2f a2 3d 71 da 26 3e 9d c3 a0 bc
       0.010968681 0.07919135 0.16294266 -0.019624526
0002b0 96 21 6d bc 3e d4 0d 3e f2 80 0d 3c b9 38 eb bd
       -0.01447334 0.13850495 0.0086367 -0.11485428
0002c0 0a 4f 0c 3d 28 ce d4 be 48 94 be bd 0e 04 38 bd
       0.034255065 -0.41563535 -0.09305626 -0.04492574
0002d0 39 1c 2a bd f7 9e a5 3c c1 22 02 bc 6e 94 b0 3d
       -0.04153082 0.020217402 -0.007942856 0.08622061
0002e0 57 23 3e 3e 67 4b c1 bd 0a 62 64 3d 89 3a 93 bb
       0.18568169 -0.0943821 0.05575756 -0.004493062
0002f0 51 ab e4 3d 17 5a d1 bd 21 0e 17 3e 96 db 74 3d
       0.111654885 -0.102222614 0.14751484 0.059779726
000300 a7 8c 07 3d 88 71 23 be b4 75 33 bd 15 33 46 3e
       0.03309312 -0.15961277 -0.043813422 0.19355424
000310 a9 7d da 3d 09 b4 cf 3d 15 ce 4e 3d 96 eb 13 bd
       0.10668499 0.10141761 0.050489504 -0.036113344
000320 4b ab fd bd 3b 07 81 3d e7 94 9c 3d 98 5e 13 be
       -0.12386187 0.06300207 0.07645588 -0.14391553
000330 d5 2c fc 3c 48 1d c8 3c 59 47 4c be 7e 6e 1a 3e
       0.030783096 0.024428025 -0.19949092 0.15081212
000340 22 31 17 be 6d 0b 03 3e 36 7c a1 bd c3 15 b8 bd
       -0.14764836 0.12797327 -0.078850195 -0.08988526
000350 84 2a 63 3d fd b5 3c bc d8 fe bf 3c 13 11 7b bd
       0.055460468 -0.011517999 0.023436949 -0.06129558
000360 a2 7c ce 3d f8 e7 87 be 26 b7 6c bd d8 e7 69 bd
       0.100823656 -0.26544166 -0.05779185 -0.05710587
000370 cb fa 36 bd 34 09 22 3e 67 4c a4 bd da 8d 37 3e
       -0.04467277 0.15823823 -0.08022385 0.17925206
000380 3b 93 df bb 9b ae e9 3d 5d d2 14 bd 4f 79 0c 3d
       -0.006822971 0.114102565 -0.03633343 0.034295376
000390 a6 8c 8d bd 56 f1 c4 bd 5d 0b 86 3c 48 e2 c4 3d
       -0.06911592 -0.09616344 0.01636284 0.09613472
0003a0 82 c4 02 3e a8 49 f1 3d 77 5c 95 bd 56 1b 46 3e
       0.12770274 0.11781627 -0.07293027 0.19346365
0003b0 61 04 a7 bd d7 b7 76 bc 7c 2a 26 3e 4d 71 00 be
       -0.08155132 -0.015058479 0.16227144 -0.12543221
0003c0 ee 47 b0 bd d5 cb 9b 3d 52 76 c1 3d 4a 67 1a 3e
       -0.086074695 0.07607237 0.09446396 0.15078464
0003d0 6a 22 72 3d 47 dd 70 3e f7 0d c0 bc 0d 9a 75 bd
       0.05911485 0.2352191 -0.023444159 -0.059961367
0003e0 1b b1 13 be de 0b 4f bd f1 77 ac 3d 1e d3 64 bd
       -0.14423029 -0.050548427 0.084213145 -0.0558654
0003f0 2c cd 16 be cb 5b 6b bc ce e0 b2 3d 1d e9 fe 3d
       -0.14726704 -0.014365147 0.08734284 0.124468066

model.4.bias f4 [64]
000000 ad 13 15 be ac 89 03 3d f0 cb 0c 3e d2 47 bf 3d
       -0.14558287 0.032113716 0.13749671 0.093398705
000010 c6 76 4a 3e fa 97 1c bd 9a f2 fb 3c 8d b2 c6 3d
       0.19771871 -0.038230874 0.03075533 0.097020246
000020 1b be a2 bd b3 d6 83 3e 05 df fa 3d dd 5e 58 3b
       -0.07946416 0.2574974 0.12249569 0.0033015527
000030 7e 1c 30 bd ca 17 a3 bd b7 e3 28 bd 55 a5 15 3d
       -0.042995922 -0.07963522 -0.04123279 0.036534626
000040 40 ee 68 3d af cb ab bc 7d 65 ff 3d 08 4d c6 3d
       0.056867838 -0.020971147 0.12470529 0.09682661
000050 53 0b 0e 3d d9 ab 10 3d 96 0e a0 3d bf 97 19 bd
       0.03467877 0.035320137 0.07815282 -0.037498232
000060 f8 84 8d 3c a2 c0 8f 3d bd 8c 3a 3e f8 a8 85 bd
       0.017275319 0.07019164 0.1821775 -0.06526369
000070 a5 86 c2 bd 00 67 e2 bc 44 3b 69 3e 02 c9 e1 3c
       -0.09498338 -0.027637005 0.22776514 0.027561668
000080 80 cf 16 bb da 5e 04 3d 3f d4 1a 3c 9c d7 30 3e
       -0.0023011863 0.03231702 0.0094500175 0.17269748
000090 94 54 08 3e 42 e8 94 bd 76 3f 06 3e ed b8 86 bc
       0.13313514 -0.07270862 0.13110146 -0.016445601
0000a0 6a 9d 4c 3e d0 95 d7 bd 91 cb 1c 3e a6 b0 3f 3d
       0.19981924 -0.10526621 0.1531203 0.046799324
0000b0 84 f2 8a 3c 2b 1f 85 bd 9f a1 c8 3d cd 2e aa bd
       0.016961344 -0.065000854 0.09796452 -0.08309708
0000c0 4b 15 fe bd c6 2c 26 3e fa df 8f 3d 82 c2 91 3a
       -0.12406405 0.16228017 0.07025142 0.001112059
0000d0 e0 63 89 3d 0b 86 53 bd 6e e1 bd 3d e8 ca 2f bd
       0.06708503 -0.051641505 0.09271513 -0.042918116
0000e0 fe 25 31 bd 7d 2b 59 bd 5f 4c 22 3e 47 cb bd 3d
       -0.043249123 -0.05301999 0.15849446 0.09267288
0000f0 90 5e d0 bd ff 43 89 bd b5 35 55 bc 4a df ce 3d
       -0.10174286 -0.06702422 -0.013013293 0.10101183

model.6.weight f4 [10, 64]
000000 ef a6 1d be fd 90 41 3c 41 10 09 be fb 0f 11 3e
       -0.15395711 0.011814353 -0.13385107 0.14166252
000010 5e 39 c2 bd dd 7f 41 bb 15 4e d0 bd 97 0b 99 be
       -0.09483598 -0.0029525675 -0.10171143 -0.29891655
000020 bf 87 eb 3c 17 e1 54 be 7b 2b be 3c ae b7 75 3e
       0.028751252 -0.2078899 0.023214092 0.2399585
000030 2a 02 e7 bd 07 ca 29 be 56 d4 03 be 21 64 b3 bd
       -0.1127971 -0.16580974 -0.12873968 -0.087593324
000040 93 bb d5 3d 71 e6 29 bc 3d b0 9a be 53 bf 58 3e
       0.104361676 -0.010369883 -0.30212584 0.21166734
000050 0c 6d 7b be 83 22 fd 3d 0d a4 0c be c1 0d 18 3e
       -0.24553317 0.12360098 -0.13734455 0.14848997
000060 14 b2 e5 3d ee 21 87 be 34 e1 87 be 27 52 f3 bd
       0.11215606 -0.26393074 -0.26539004 -0.11880904
000070 0d c0 5c 3c 68 87 29 3e 15 6e d0 3d ae 4f dc bb
       0.013473523 0.1655556 0.101772465 -0.0067233657
000080 a8 4e 5a 3c ae de 80 bd 56 6b 87 bd 72 db b4 bd
       0.013324417 -0.06292473 -0.066122696 -0.08830918
000090 6e 43 df bd 57 06 34 bc 9c f8 7c be be aa 8a bc
       -0.10901533 -0.01098784 -0.24704212 -0.01692712
0000a0 69 67 b0 bd a3 2d 0f bd 17 42 ae bd 8e 86 27 be
       -0.08613474 -0.034955632 -0.085086994 -0.16359922
0000b0 df 1c fd 3d cc 7d e7 bb fc 10 74 3d 61 2b 36 be
       0.12359022 -0.0070645567 0.05958651 -0.17789985
0000c0 3f b9 6e bd 77 71 14 3e 83 e2 0b 3e 4b 23 42 be
       -0.058282133 0.14496408 0.13660626 -0.18958776
0000d0 fd 21 86 bd 0f 71 2a 3e 1b 15 d7 3d 7d bd 96 3d
       -0.065494515 0.16644691 0.105020724 0.07360361
0000e0 1c 20 44 3e 22 ff a0 3d f3 9a e6 3d 49 ba 1a be
       0.19152874 0.07861163 0.11260023 -0.15110125
0000f0 cb 77 71 3c 27 06 9c 3d be ad 88 3d 44 e5 f4 bd
       0.0147380335 0.07618361 0.06673764 -0.119577914
000100 17 52 45 3d e8 fa 8c be 46 25 85 be 1e 74 3a be
       0.04817399 -0.27535176 -0.26005 -0.18208358
000110 64 f4 89 be ce 88 bd bd 38 2b af 3d 7a 55 d9 3c
       -0.26944268 -0.09254609 0.08553165 0.026530016
000120 26 c1 70 be 91 ae 6c be 01 3e 49 be 4b 35 a9 bc
       -0.2351118 -0.23113467 -0.19652559 -0.020655295
000130 d3 d3 4e 3d 05 c7 5a 3e 0f 96 84 bd cd cf 1f 3c
       0.05049498 0.21364982 -0.06473934 0.009754133
000140 3a 64 76 3e 57 0f 3b 3e 37 91 6a 3d 79 f5 d4 bd
       0.24061671 0.1826757 0.057267394 -0.10398383
000150 ec d4 cd 3d 03 f8 27 3e 03 b9 03 be 20 d7 19 be
       0.10050377 0.16403203 -0.12863545 -0.1502347
000160 81 5d e4 bd a0 57 1d 3e 80 f6 28 bc 49 2a 13 be
       -0.11150647 0.15365458 -0.010312676 -0.143716
000170 d8 31 d5 3d 5c 89 8d be 80 e3 74 be e4 c2 15 bd
       0.104098976 -0.2764386 -0.2391491 -0.036562815
000180 b2 d5 50 bd cc 89 a4 be 04 29 e5 3b 56 ca 9c 3d
       -0.050985046 -0.3213638 0.006993415 0.0765578
000190 65 c3 50 3d 8e 61 fe bd 47 32 d7 3d a8 17 d0 be
       0.050967593 -0.12420951 0.105076365 -0.40643048
0001a0 c8 82 55 3e bc b3 19 3e 0c 81 4e 3e e6 bb 14 3e
       0.2085067 0.1500997 0.20166415 0.14524803
0001b0 48 c5 b7 3d 90 8b e8 3c 55 cc d7 bd cf a0 26 3e
       0.08973175 0.028386861 -0.1053702 0.16272281
0001c0 e5 59 9b 3d 6c 81 40 be 59 28 aa 3d 91 42 7b 3d
       0.075855054 -0.1879937 0.08308477 0.06134278
0001d0 fd 87 04 be f2 fe 33 3d be 0a db bc 73 32 05 3e
       -0.129425 0.043944307 -0.02673852 0.13007526
0001e0 dd da 29 be d5 8c 6a 3d 5a 13 26 be 3c 30 ca 3c
       -0.16587396 0.057263214 -0.1621832 0.024681203
0001f0 c2 5d 12 ba 76 89 8a 3d f0 c5 20 3e a8 85 f2 bd
       -0.0005583429 0.067645 0.15700507 -0.11841899
000200 27 43 08 3e 02 3b 04 bd 8f e4 37 be 11 0a 2f be
       0.13306867 -0.032282837 -0.17958282 -0.17093684
000210 b4 4d 3c be 72 9c 2d 3d 06 8d 0c 3e 8c 9e 87 3c
       -0.18389016 0.042385526 0.13725671 0.016555093
000220 86 f3 32 3e 99 00 34 bd 6f 3b 00 be 06 aa 22 3c
       0.1747571 -0.043945882 -0.12522672 0.009928232
000230 a3 b9 b3 be 95 b1 5b bd 65 38 e8 3d 68 4b 2e 3e
       -0.35102567 -0.053636152 0.113388814 0.17020953
000240 f7 04 b8 bd ea d2 41 be 61 56 0c be 47 e9 43 bd
       -0.08985322 -0.18928114 -0.13704826 -0.047829892
000250 ac 5c 9f 3d 01 86 d9 3c 07 bb e2 3c 96 9c 21 3e
       0.07781348 0.026553156 0.027677072 0.15782389
000260 5a 2b 46 3e 1e 56 47 be 68 1c aa bd 93 b8 45 3d
       0.19352475 -0.19466445 -0.08306199 0.048271727
000270 9d d5 77 bd 5e d2 03 3e fd df 10 3d 84 7e 60 bd
       -0.060506452 0.12873217 0.035369862 -0.054808155
000280 94 3b 06 3c a9 da 8a 3d 8c 7b 70 3d 98 eb 99 bd
       0.0081929155 0.06779987 0.058711573 -0.07515639
000290 67 6d 15 3e f3 cc 3d be af de 55 be 56 d7 25 be
       0.14592515 -0.18535213 -0.20885728 -0.16195425
0002a0 e7 37 f8 3d 9d 3b a6 bd c7 ef 35 bd 45 c4 85 be
       0.121200375 -0.08116839 -0.044418123 -0.26126304
0002b0 0a 1f 65 3d 29 cb 3d 3d bc e3 1a 3e e1 04 77 3d
       0.055937804 0.046336327 0.15125936 0.060307387
0002c0 12 95 56 bd 4d df 9e 3d e8 f5 b3 be f5 f7 d7 bc
       -0.05238826 0.07757435 -0.3514855 -0.026363352
0002d0 c0 8f ae bd ee e6 2b 3e 85 25 87 be 0c cd d5 3c
       -0.08523512 0.16787311 -0.26395813 0.02609875
0002e0 43 25 4d bd 66 35 c7 3b 2f 15 c6 3c 71 f5 e5 3d
       -0.050084364 0.0060793636 0.024180023 0.11228455
0002f0 1a 7d c9 bc e7 03 08 3e 08 7d 6d bc d4 60 32 3e
       -0.024595786 0.13282739 -0.014495142 0.1741975
000300 89 e8 be bb 6b c9 26 3e 0c 26 28 be 4e d4 34 be
       -0.00582606 0.16287772 -0.16420764 -0.17659113
000310 37 f6 6a bc fa 8c a1 3d d1 49 af 3d 1a 35 e7 3d
       -0.014340929 0.07888217 0.08559001 0.11289425
000320 eb 19 ea 3d e2 6f 9a 3d 80 a8 96 bd 88 11 8f 3c
       0.11430725 0.07540871 -0.073563576 0.017464414
000330 ec 56 c2 bc 33 5f 5d 3e 2c 91 c7 bd 9e 99 dc bc
       -0.023723088 0.21618347 -0.09744486 -0.02692872
000340 d8 03 e0 bb 29 4b 3e be 90 47 55 be a2 17 0b 3e
       -0.0068363957 -0.18583359 -0.2082808 0.13583234
000350 71 94 3b 3e 9d c7 7c be 7e af 37 3e ec af 25 be
       0.18318345 -0.24685521 0.17938039 -0.1618039
000360 75 9b a7 bd 71 83 13 3e fe 6a f4 3d 01 e3 08 be
       -0.08183948 0.1440561 0.1193447 -0.13367845
000370 09 b1 3d bd d3 c3 33 be 0d a5 9b 3d 67 2e 40 be
       -0.046311412 -0.1755517 0.0759984 -0.18767701
000380 bd 08 2c be d9 08 68 be 2f a3 96 bd c1 9d 33 3d
       -0.16800208 -0.22659625 -0.073553436 0.043851618
000390 53 ba d9 bd e2 f9 1f 3e 5a 58 6b bc fa c7 33 be
       -0.10631242 0.15622666 -0.014364326 -0.17556754
0003a0 b0 0e 85 be eb aa 95 bd 64 76 8d be 6b 05 74 be
       -0.25987768 -0.07307991 -0.27629387 -0.23830192
0003b0 9f 00 9b bd 6f bb 38 bd d6 a5 44 3d cf 0c 27 3e
       -0.07568478 -0.045100626 0.048009716 0.1631348
0003c0 eb 2f d7 3c 0f 4d a6 3c d4 ef 0f be 3b 34 f2 3d
       0.026267966 0.020300416 -0.14056331 0.118263684
0003d0 e6 a3 02 3e d7 7e 1f be 89 d6 16 bb 0c 86 37 be
       0.12757835 -0.1557573 -0.0023016057 -0.17922229
0003e0 b5 64 7c 3d eb e1 5a bd 74 dc aa 3d 8b c6 40 be
       0.06161948 -0.05343811 0.08342829 -0.18825738
0003f0 60 25 a7 bd 6e c8 e5 3d 55 cc 8f bc fd 3a ce 3d
       -0.081614256 0.112198696 -0.017553488 0.10069845

model.6.bias f4 [10]
000000 cd 73 a5 bc 61 27 51 3d cf ce 49 bd cf 5d ab bc
       -0.02019682 0.051062945 -0.049269494 -0.020918755
000010 4c aa 58 3e 93 70 17 3e e8 25 b0 bd 04 e1 64 bd
       0.21158713 0.14789037 -0.0860098 -0.055878654
000020 ad b7 81 3e 56 53 ff 3d
       0.25335446 0.12467067
