chapter22/torchserve/checkpoint.pt (torch, 974308 bytes, 8 tensors)

model.0.weight f4 [256, 784]
0	0xbb44a9a0	-0.003000833
1	0x39ffc480	0.00048783794
2	0x3cb61b16	0.022229712
3	0xbcac8aa8	-0.02106221
4	0xba4c9e00	-0.0007805526
5	0x3bfe3ca8	0.0077586956
6	0x3c798428	0.015229262
7	0x3ba0f048	0.0049114563
8	0x3c4d5a18	0.012533687
9	0xbc25921c	-0.010105636
10	0x3c236ef4	0.009975184
11	0x3cdc4dfa	0.02689265
12	0x3d685438	0.056720942
13	0x3cf36eb8	0.02971588
14	0xbdecf7a5	-0.11570672
15	0xbdaa477f	-0.08314418
16	0x3c7219e0	0.014776677
17	0xbcab96de	-0.020945963
18	0xbc86d1d0	-0.016457468
19	0x3ca0817a	0.01959299
20	0xbcde1210	-0.027108222
21	0xbc952e7e	-0.018210646
22	0xbc71430a	-0.014725456
23	0xbc019b60	-0.007910579
24	0xbca85b4e	-0.02055135
25	0x3c9d1096	0.019172948
26	0xbc4a8e58	-0.012363039
27	0xbc75aaea	-0.014994362
28	0x3ce059e2	0.02738661
29	0x3bc57648	0.006026063
30	0xbd0bc08e	-0.03411918
31	0x3cb1b288	0.021691576
32	0x3cc8da7c	0.024518244
33	0x3b94fdbc	0.004546849
34	0xbc8004d2	-0.015627299
35	0xbc9000d3	-0.017578518
36	0xbd353fd1	-0.044250313
37	0xbc3b1beb	-0.01142023
38	0x3bc4dd1d	0.006007804
39	0x3d1b466c	0.037908956
40	0x3d38303f	0.044967886
41	0x3dc0014a	0.09375246
42	0x3df93ee6	0.121702
43	0x3c3e0dab	0.011599938
44	0x3d208475	0.03918882
45	0x3d7377db	0.059440475
46	0xbb8bb6b0	-0.0042637214
47	0x3ced98dd	0.029003555
48	0x3c629095	0.013828416
49	0xbcf7882b	-0.030216297
50	0xbd88a679	-0.06672377
51	0xbd915cde	-0.07097791
52	0x3c6be320	0.014397413
53	0x3c066a1c	0.008204009
54	0x3bead1b0	0.00716611
55	0x3cd75d96	0.026289742
56	0xbce29775	-0.027660111
57	0xbb5c7de0	-0.0033644363
58	0x3ca12815	0.019672433
59	0xbd862646	-0.06550269
60	0x3b40397b	0.0029331136
61	0x3c508e13	0.012729186
62	0xbd8938cc	-0.06700286
63	0xbdf2f2a5	-0.11862687
64	0xbdc86fb5	-0.097869314
65	0xbdd8cc30	-0.10585821
66	0xbdbb3374	-0.09140673
67	0xbca9d22e	-0.020730104
68	0xbdc2864e	-0.09498273
69	0x3dbac424	0.09119442
70	0x3e3c1910	0.18368936
71	0x3d8c30b5	0.06845228
72	0xbe1041f3	-0.14087658
73	0xbd5e80ce	-0.054322056
74	0xbe337f78	-0.17529094
75	0xbdb5b594	-0.08872524
76	0xbd37695d	-0.044778217
77	0xbb8261c5	-0.00397894
78	0xbcb2262d	-0.02174672
79	0xbe0331f6	-0.12812027
80	0x3c0b5b88	0.0085057095
81	0x3c17f2e2	0.009274216
82	0x3b8bc3c8	0.0042652823
83	0x3c5704c0	0.013123691
84	0xbcb02115	-0.02150015
85	0x3d0e9721	0.034812097
86	0xbc8cd22f	-0.017190067
87	0x3d41fc63	0.047359835
88	0x3dcb86fd	0.09937856
89	0x3c3c2ec1	0.011485756
90	0xbd669fd5	-0.05630477
91	0x3b42a13c	0.0029698154
92	0xbd033406	-0.032032035
93	0xbe1617b5	-0.14657481
94	0xbbb3ae5b	-0.0054834313
95	0xbd04473f	-0.032294508
96	0xbce878fe	-0.028378006
97	0x3cb3919d	0.02192002
98	0x3d8a803d	0.06762741
99	0xbd75ac6c	-0.059978887
100	0x3c18c0a0	0.009323269
101	0xbd385ac5	-0.04500844
102	0x3a1b5983	0.0005926119
103	0xba86695d	-0.0010254789
104	0x3d3689d3	0.044565033
105	0x3e08dd6c	0.13365716
106	0xbd6e49f1	-0.058175985
107	0xbdc34673	-0.095349215
108	0x3d2b61e4	0.041841403
109	0x3baabbbb	0.0052103675
110	0x3d144bd6	0.036205135
111	0x3d102959	0.035195682
112	0xbd018026	-0.031616352
113	0xbccce6a0	-0.025012314
114	0xbaf40ffa	-0.0018620484
115	0x3dfd8633	0.12379112
116	0xbd91774b	-0.071028315
117	0xbd137bff	-0.036006924
118	0xbe046c3b	-0.12931912
119	0xbd085a34	-0.03328915
120	0x3cd2bdcf	0.025725273
121	0xbd45f12a	-0.048325695
122	0xbc27e8b1	-0.010248349
123	0x3dd9f587	0.10642534
124	0x3e4a9cec	0.19786423
125	0x3da70724	0.08155659
126	0x3d4bfba1	0.04980052
127	0x3ded8545	0.11597685
128	0x3d247b0c	0.04015641
129	0x3dcd64fd	0.100290276
130	0x3dc8ec95	0.098107494
131	0x3df183ac	0.117926925
132	0x3e7c3d20	0.24632692
133	0x3e3cbf73	0.18432407
134	0x3e218052	0.15771607
135	0x3db1c8a2	0.08680846
136	0x3dbd0b8b	0.09230717
137	0xba6bc388	-0.0008993675
138	0x3c1fdbed	0.009757024
139	0xbc41544a	-0.011799881
140	0xbcf90c6a	-0.030401427
141	0xbca2cbaa	-0.019872505
142	0xbdd4a529	-0.10383064
143	0xbdedf32f	-0.11618649
144	0xbe862d7d	-0.2620658
145	0x3c6f1f65	0.014594887
146	0x3d163f1e	0.036681287
147	0x3ca72e2e	0.020407762
148	0x3dcb4d33	0.09926834
149	0x3dcec271	0.100956805
150	0x3e4d2110	0.20032144
151	0x3e720f0d	0.23638554
152	0x3e144124	0.14477974
153	0x3da8705b	0.08224555
154	0xbcf18728	-0.029483393
155	0xbd130fa1	-0.035903577
156	0xbd2b5dbb	-0.041837435
157	0x3d25e32b	0.040499847
158	0x3e142e50	0.14470792
159	0x3e0c904c	0.1372692
160	0x3dbb2046	0.09137015
161	0x3e3c13d4	0.18366939
162	0x3e10619d	0.14099737
163	0xbcc7dbc2	-0.02439678
164	0xbd037df4	-0.03210254
165	0xbd804c73	-0.062645815
166	0x3dc75f5a	0.09734984
167	0xbb419703	-0.0029539473
168	0x3af2dc20	0.0018528737
169	0xbbb707c8	-0.0055856444
170	0xbd537686	-0.051626705
171	0xbe2141ad	-0.1574771
172	0xbe054a2f	-0.1301658
173	0x3e05af61	0.13055183
174	0xbd5b263c	-0.05350326
175	0x3d1677b1	0.03673524
176	0x3d9e3770	0.077254176
177	0x3d3cb3bf	0.046069857
178	0x3db8004f	0.08984434
179	0x3dd0339d	0.101660945
180	0x3d43fd07	0.047848728
181	0xbc83855b	-0.0160548
182	0xbd756f2e	-0.059920482
183	0xbd9be21e	-0.07611488
184	0x3cc89282	0.024483923
185	0x3cdca0bf	0.026932118
186	0xbd17df84	-0.037078395
187	0x3dacdb73	0.08440294
188	0x3dbe96fa	0.0930614
189	0xbcc4ffef	-0.02404782
190	0xbd9eea8d	-0.07759581
191	0xbccb6021	-0.024826111
192	0xbdf32370	-0.118719935
193	0x3e122588	0.1427213
194	0x3de35ccc	0.11101684
195	0x3cc8ca26	0.024510454
196	0xbd100689	-0.035162482
197	0x3d8cbd9e	0.06872104
198	0xbd4f299b	-0.050576787
199	0xbe226312	-0.15858105
200	0xbe049e46	-0.12951002
201	0xbc5d0116	-0.013489028
202	0xbdb06fbd	-0.086150624
203	0x3b7ed17d	0.003888219
204	0x3da4d600	0.0804863
205	0x3cd7179c	0.026256375
206	0x3d6ac928	0.057320744
207	0x3e0b371b	0.1359524
208	0x3c4ba5a9	0.012429633
209	0xbd89f568	-0.06736261
210	0xbd8f53ab	-0.0699838
211	0xbcb4f804	-0.02209092
212	0xbc77ad26	-0.015116965
213	0xbd40586f	-0.046959337
214	0x3c173525	0.009228979
215	0x3d5246c5	0.051337022
216	0x3c42fe8a	0.011901507
217	0xbbc9792d	-0.0061484785
218	0xbdea6af6	-0.114461824
219	0xbe4f28f1	-0.20230462
220	0xbda260bb	-0.07928606
221	0x3e4f0bd8	0.20219362
222	0xbb6eb84a	-0.0036425763
223	0xbc921327	-0.017831398
224	0x3c4c1b72	0.012457715
225	0xbd224800	-0.039619446
226	0x3e20d39f	0.15705727
227	0x3d9d895b	0.07692214
228	0xbe0871ab	-0.13324611
229	0xbd327ae8	-0.043574244
230	0x3d9101e8	0.07080442
231	0x3d8bcbc9	0.06825978
232	0x3dc199fc	0.09453198
233	0x3dc7d216	0.097568676
234	0x3dad9f7e	0.08477686
235	0x3db5a707	0.088697486
236	0xbc9b458b	-0.01895406
237	0xbe32565b	-0.17415754
238	0xbd0d69ca	-0.034524716
239	0x3d2dbcde	0.042416446
240	0xbdca3f80	-0.09875393
241	0xbda19b04	-0.07890895
242	0xbcfa64c1	-0.030565621
243	0xbda13806	-0.07872014
244	0xbdccdcbe	-0.10003041
245	0xbd852ffe	-0.065032944
246	0xbe33ddfb	-0.17565148
247	0xbe32e9ed	-0.17472048
248	0xbbf8d9bb	-0.007594315
249	0x3e561886	0.20907792
250	0x3d8d3803	0.06895449
251	0x3c6e44f0	0.014542803
252	0xbca31948	-0.019909516
253	0x3cae9a75	0.021313885
254	0x3e840492	0.25784737
255	0x3e3a9a2c	0.18222874

model.0.bias f4 [256]
0	0x3de4b947	0.11168151
1	0xbd47811a	-0.048707105
2	0xbcbfab9d	-0.023397261
3	0xbde2eb0d	-0.11079989
4	0x3cdc7d07	0.026915086
5	0x3df9d669	0.121990986
6	0xbc48296d	-0.012216908
7	0x3e0e8de2	0.13921311
8	0x3d392df9	0.04520986
9	0xbc9ca282	-0.019120459
10	0x3dfbf6ef	0.12302958
11	0x3d5267e6	0.051368617
12	0x3d4ab530	0.0494892
13	0x3d910a71	0.0708207
14	0x3d9343cd	0.07190666
15	0x3b76d31b	0.003766245
16	0xbcc392a8	-0.023873642
17	0xbdb5ac2e	-0.08870731
18	0x3d84f8ff	0.06492805
19	0xbd03b328	-0.03215328
20	0x3da47fc8	0.08032185
21	0xbc41c687	-0.011827118
22	0x3d05c14c	0.032655045
23	0x3c6d3eb3	0.014480281
24	0x3cf00be7	0.02930255
25	0x3cf30ddd	0.029669696
26	0x3e436403	0.1908112
27	0xbd8810d3	-0.06643834
28	0x3d2f54c9	0.042805467
29	0x3c3c7483	0.011502388
30	0xbdac513d	-0.084139325
31	0xbaec2757	-0.0018017095
32	0x3c85dc22	0.016340319
33	0xbd1ae58a	-0.03781656
34	0x3d2f9073	0.042862367
35	0xbd67b2fa	-0.05656717
36	0xbc33947b	-0.0109606935
37	0x3d79da8f	0.06099945
38	0xbb69f60d	-0.0035699636
39	0xbca42ddf	-0.020041404
40	0xbcceac72	-0.025228713
41	0xbd4abd4e	-0.04949694
42	0xbd7267a4	-0.05918087
43	0x3d20f92a	0.03930012
44	0xbd74b3bc	-0.05974172
45	0x3c075bf6	0.008261671
46	0x3d7642a6	0.060122155
47	0x3daf030d	0.08545504
48	0x3d060b29	0.032725487
49	0xbbdc642c	-0.0067258086
50	0xbbd8430f	-0.006599791
51	0xbd0db1cc	-0.03459339
52	0x3d77706f	0.06040996
53	0xbe01893d	-0.12650008
54	0x3d31473b	0.04328082
55	0x3e419b90	0.18906999
56	0xbd015f71	-0.03158516
57	0xbd59793c	-0.053094134
58	0x3b19f0d5	0.0023489494
59	0xbd21487d	-0.03937577
60	0xbd48e684	-0.04904796
61	0xbc6bc5f3	-0.0143904565
62	0x3ca90b63	0.020635312
63	0xbe1e57f0	-0.15463233
64	0xbafddaae	-0.001936754
65	0x3d876e26	0.06612806
66	0xbcee1d81	-0.029066803
67	0x3cd61f63	0.026138013
68	0xbc5eb9ca	-0.0135941
69	0x3d30cd8f	0.043164786
70	0xbe265723	-0.16244178
71	0x3dbcca65	0.09218291
72	0xbd12c556	-0.035832725
73	0x3cdefc6b	0.027219972
74	0xbd57f0b0	-0.05271977
75	0x3d83208e	0.06402694
76	0x3d7980b5	0.06091376
77	0x3dfc466e	0.12318121
78	0x3e33a3ba	0.17542925
79	0x3e07db54	0.13267261
80	0xbc4eb460	-0.012616247
81	0xbc99c159	-0.018768953
82	0xbcae9451	-0.021310957
83	0xbcfe17f6	-0.031017285
84	0x3c7b2af9	0.01533007
85	0xbd196253	-0.037447285
86	0x3cf773f5	0.03020666
87	0x3ca307e1	0.019901218
88	0xbdb3b14d	-0.08774052
89	0x3bf220fd	0.0073891864
90	0x3cb57072	0.022148345
91	0xbb5c575b	-0.0033621404
92	0xbc322ce7	-0.010874963
93	0x3c2b0164	0.010437343
94	0xbd06b325	-0.03288569
95	0xbd2face3	-0.042889487
96	0x3da46f28	0.08029014
97	0xbdbcb043	-0.09213307
98	0x3cb75f48	0.0223843
99	0xbc8edbbb	-0.01743876
100	0xbb6816d1	-0.003541399
101	0xbac8337e	-0.0015274135
102	0x3e5a230a	0.21302429
103	0x3ca0a67d	0.019610638
104	0xbd396f47	-0.045272138
105	0xbb40c96c	-0.0029416932
106	0xbd744882	-0.05963946
107	0xbde5ced2	-0.112210885
108	0x3d3ae480	0.04562807
109	0x3cda1192	0.026619706
110	0x3dcc4cea	0.09975608
111	0xbdb9a335	-0.090643324
112	0x3c82ddfe	0.015974995
113	0xbb52c9dc	-0.0032163775
114	0x3c92dc90	0.017927438
115	0x3d76ca71	0.060251657
116	0x3ccef9aa	0.025265533
117	0xbc98f30b	-0.01867058
118	0xbc99ae37	-0.01875983
119	0xbd6f1419	-0.058368776
120	0x3ca107af	0.019656984
121	0xbdcd8b3c	-0.100363225
122	0x3db90546	0.09034209
123	0x3c42945b	0.011876191
124	0xbd85c0aa	-0.065308884
125	0xbd80da13	-0.06291594
126	0x3b59281a	0.0033135475
127	0xbd11a22f	-0.03555506
128	0xbc31b06c	-0.010845285
129	0xbd54c529	-0.05194584
130	0x3ddaf2b2	0.10690822
131	0xbd2a8051	-0.04162628
132	0xbd08e7d1	-0.033424202
133	0xbc329576	-0.010899892
134	0xbdc6212a	-0.09674294
135	0xbd0625f7	-0.03275105
136	0x3c47096f	0.012148245
137	0x369b3200	4.6251807e-06
138	0xbdae4e47	-0.08511024
139	0xbe174e19	-0.14775886
140	0xbd9e487e	-0.077286705
141	0x3d5973d8	0.053088993
142	0xbd9a1e8a	-0.07525356
143	0xbd799a29	-0.060938034
144	0x3d813173	0.0630826
145	0xbe40ebd9	-0.18839969
146	0xbde5bd3e	-0.11217736
147	0x3be5fa09	0.007018332
148	0xbdff68d4	-0.12471166
149	0xbcedd7ae	-0.029033508
150	0x3d40d0ea	0.047074236
151	0x3c184027	0.009292639
152	0x3c21616a	0.0098498855
153	0x3e122737	0.14272772
154	0x3c677c0d	0.014128697
155	0xbdbbe5d9	-0.09174699
156	0x3d51f8a1	0.0512625
157	0x3d854d6b	0.06508907
158	0x3e0250d3	0.12726144
159	0x3d42768f	0.047476348
160	0x39fb4301	0.00047924372
161	0xbcbca25e	-0.023026641
162	0xbd72cb75	-0.059276063
163	0xbbbcc9f5	-0.00576138
164	0xbdd0d068	-0.10196
165	0x3d7b6a86	0.061380886
166	0xbd214587	-0.039372947
167	0x3cba363d	0.022730941
168	0x3d27f499	0.04100475
169	0xbd8199ad	-0.063281395
170	0x3d391b40	0.045192003
171	0xbdbe6c12	-0.092979565
172	0x3ca624d6	0.020281237
173	0x3e216e0c	0.15764636
174	0xbc7431cb	-0.01490445
175	0x3b4cd559	0.0031255095
176	0xbd071bd7	-0.032985535
177	0x3e0b8c87	0.13627826
178	0xbde23863	-0.11045911
179	0x3daeaa0c	0.085285276
180	0x3d221dca	0.03957919
181	0xbda92124	-0.08258274
182	0x3cd954ef	0.026529757
183	0x3d325fd3	0.043548416
184	0xbd96764d	-0.07346783
185	0x3c48da4f	0.01225908
186	0xbd89e1b5	-0.06732503
187	0x3df0ed08	0.1176396
188	0xbdd3c119	-0.10339565
189	0x3d08b726	0.03337779
190	0xbca8773a	-0.020564664
191	0x3c6c2b79	0.014414662
192	0x3bb53249	0.005529676
193	0x3ddbce52	0.10732712
194	0xbd3bd93e	-0.045861475
195	0x3dfe3ed1	0.12414325
196	0x3d82db0f	0.06389438
197	0x3d596fff	0.053085323
198	0x3d97cbb2	0.07411899
199	0xbc0fe6b6	-0.008783033
200	0xbe072caf	-0.13200639
201	0xbe5562e3	-0.20838504
202	0x3d074bb9	0.0330312
203	0xbdc3da54	-0.09563127
204	0xbd08f5a2	-0.03343738
205	0xbdd516d4	-0.10404745
206	0xbc0f2345	-0.008736436
207	0x3dbe1371	0.09281052
208	0xbd94878a	-0.072524145
209	0xbd57dcb1	-0.052700702
210	0xbd15913d	-0.036515463
211	0x3de1231e	0.10993026
212	0x3d1b3509	0.037892375
213	0xbd252a96	-0.040323816
214	0xbd10e87c	-0.035377964
215	0x3e2f00f9	0.17090215
216	0xbde6052e	-0.11231457
217	0xbd4967a0	-0.04917109
218	0x3ccdc259	0.025117086
219	0xbdbef95b	-0.093249045
220	0x3d869952	0.06572212
221	0x3dfb21bf	0.12262296
222	0xbe0e0dc7	-0.13872443
223	0x3d000b65	0.031260867
224	0x3d413394	0.04716833
225	0x3d38cedd	0.045119155
226	0x3d5ef4a3	0.054432523
227	0xbd85c678	-0.065319955
228	0x3de58796	0.112075016
229	0x3d43fa30	0.04784602
230	0x3dc3bcdc	0.095575064
231	0x3d9172de	0.07101987
232	0xbca75cd1	-0.02043
233	0x3cb2d0ba	0.021828044
234	0xbda6032a	-0.08106072
235	0x3cc6f8c2	0.024288539
236	0x3e025341	0.12727071
237	0x3e012f40	0.1261568
238	0xbd535f76	-0.05160471
239	0x3dfa77a6	0.122298524
240	0x3d338aaa	0.043833412
241	0x3d1c842c	0.038211986
242	0xbc3d96f7	-0.011571637
243	0xbb194c9e	-0.0023391615
244	0x3de10913	0.10988059
245	0xbca27043	-0.019828921
246	0x3d936100	0.07196236
247	0x3e25633f	0.1615114
248	0x3e170f75	0.1475199
249	0xbd044dbf	-0.032300707
250	0x3c24f36f	0.010067805
251	0xbd07fbc7	-0.033199098
252	0x3c2f0cd0	0.010684207
253	0xbcf06235	-0.029343704
254	0xbd1cd168	-0.038285643
255	0x3e2b247e	0.1671314

model.2.weight f4 [128, 256]
0	0xbe076650	-0.13222623
1	0x3d62a636	0.055334292
2	0x3d7640c1	0.060120348
3	0x3ca88539	0.020571338
4	0x3dac989b	0.08427545
5	0x3e1de37d	0.15418811
6	0x3dcd000b	0.10009774
7	0x3d535c30	0.05160159
8	0x3e4b7ce9	0.19871868
9	0x3d64c7ee	0.05585473
10	0xbdabb0e7	-0.08383351
11	0x3b87dae0	0.004145965
12	0xbd6da4dc	-0.05801855
13	0xbec66cc6	-0.38754863
14	0x3d851721	0.06498552
15	0x3dcc6315	0.09979836
16	0xba90e214	-0.0011053705
17	0x3e1ca347	0.1529666
18	0x3d4a8d03	0.049450886
19	0xbb51ab13	-0.0031992837
20	0xbcf3e554	-0.029772438
21	0x3b1b4fcf	0.0023698693
22	0x3e20ccc8	0.15703118
23	0x3da82bb7	0.08211463
24	0xbe8f1bb0	-0.2795081
25	0x3d9ce571	0.0766095
26	0xbcc23317	-0.023706002
27	0x3b7f9998	0.003900146
28	0x3cb75e19	0.022383736
29	0xbc9985d7	-0.018740578
30	0x3d55435b	0.05206619
31	0xbd21f32f	-0.03953856
32	0x3ccf0c5a	0.025274444
33	0xba4e74a4	-0.0007875657
34	0xbe16e916	-0.14737353
35	0xbce1b42c	-0.027551733
36	0x3e49309c	0.1964745
37	0x3d22762c	0.03966348
38	0x3d556397	0.05209693
39	0x3da83f89	0.08215243
40	0x3c04e6dc	0.008111682
41	0x3d6c923c	0.057756647
42	0xbdeae96c	-0.11470303
43	0xbe11a031	-0.14221264
44	0x3d3be8b3	0.045876216
45	0x3d6aed1a	0.057355024
46	0xbcfcf0b5	-0.030876497
47	0x3d22fa80	0.039789677
48	0xbe4dba83	-0.2009068
49	0xbcd05947	-0.025433196
50	0x3e38692d	0.18008871
51	0xbd100997	-0.035165396
52	0xb8d52379	-0.00010163239
53	0x3e5060a8	0.20349371
54	0xbc9e4382	-0.0193193
55	0xbe84d3bf	-0.259428
56	0x3d7c5d00	0.06161213
57	0x3cbc11f0	0.022957772
58	0x3d3bc9eb	0.04584686
59	0x3d4e6f56	0.050399147
60	0xbd0a332e	-0.033740215
61	0xbc23b144	-0.009990994
62	0x3d86b38f	0.06577217
63	0xbdaca33b	-0.08429571
64	0xbc833058	-0.016014263
65	0xbdaf05ec	-0.085460514
66	0xbdc6925c	-0.096958846
67	0x3eae3b7b	0.34029755
68	0xbc96a2e3	-0.018388217
69	0x3d43b9eb	0.047784727
70	0x3dead584	0.11466506
71	0xbc5bd998	-0.013418578
72	0xbb5340aa	-0.0032234588
73	0xbd36c7c6	-0.044624113
74	0xbc9b361c	-0.0189467
75	0xbd921b80	-0.071341515
76	0xbd42092c	-0.04737203
77	0x3d353060	0.044235587
78	0x3d24d224	0.04023947
79	0x3cdebb9d	0.02718907
80	0x3ce18484	0.027529009
81	0x3c8b36b3	0.016993856
82	0x3bfa6149	0.007640992
83	0x3ce20d3a	0.027594198
84	0x3d23682d	0.03989427
85	0x3da13de6	0.07873134
86	0xbccc96de	-0.024974283
87	0x3d0484c9	0.032353196
88	0x3d91d114	0.071199566
89	0xbd933218	-0.07187289
90	0x3c425d21	0.011863024
91	0x3e04183a	0.12899867
92	0x3e055711	0.13021494
93	0xbce5e102	-0.028061394
94	0xbd9d8bae	-0.076926574
95	0x3d8d384b	0.06895503
96	0x3e6cf61f	0.23140763
97	0xbd2a6afc	-0.041605935
98	0x3dfad36b	0.12247356
99	0x3c2d6148	0.010582276
100	0xbd52ad46	-0.051434778
101	0xbde6196c	-0.112353176
102	0x3e35cf5a	0.1775488
103	0x3d34a7ab	0.044105213
104	0xbe86f85c	-0.26361358
105	0xbc88aea6	-0.016684841
106	0xbcafc6dc	-0.021457128
107	0x3d25bbf0	0.040462434
108	0xbd69eb11	-0.057108942
109	0xbcd6e197	-0.026230616
110	0xbdd3d8c8	-0.10344082
111	0xbced77c6	-0.028987776
112	0xbccda350	-0.025102288
113	0x3e50d15b	0.20392363
114	0xbd60754c	-0.054799363
115	0x3e2b690f	0.16739295
116	0x3cab3ab2	0.020902012
117	0xbde7af1b	-0.113126956
118	0xbe28b1b7	-0.16474043
119	0xbdf012d4	-0.11722341
120	0xbd7866e0	-0.060644984
121	0x3e24bdc7	0.1608802
122	0xbd9b609d	-0.07586787
123	0x3c47ea5a	0.01220187
124	0x3d95435b	0.07288238
125	0x3dd90d5a	0.1059825
126	0x3af592db	0.0018735783
127	0xbd2d5e3c	-0.042326197
128	0x3d3e1b91	0.046413008
129	0x3bac6dc5	0.005262109
130	0x3cdb1a4f	0.026745943
131	0x3d03aa67	0.03214493
132	0x3e53e45c	0.20692581
133	0xbc9b0004	-0.018920906
134	0xbc26ecba	-0.010188276
135	0xbe0e39df	-0.13889264
136	0x3e31f6f2	0.17379358
137	0xbda5fda1	-0.081050165
138	0xbd299d74	-0.041409925
139	0x3d61e29a	0.055147745
140	0xbcfbf8e7	-0.030758334
141	0x3d2aa7a2	0.041663773
142	0x3dc5925e	0.09647058
143	0x3e3a7352	0.18208054
144	0xbe028c42	-0.12748817
145	0x3dcd8e56	0.10036914
146	0xbdb1defd	-0.0868511
147	0x3d8eb510	0.06968129
148	0xbc55b5e8	-0.013043858
149	0x3cbf96a7	0.023387266
150	0xbe653abd	-0.22385688
151	0x3e08bf55	0.13354237
152	0xbcabc2b9	-0.020966874
153	0x3c8728e6	0.016498994
154	0xbdbf0535	-0.09327165
155	0x3d152066	0.03640785
156	0x3dc5e466	0.09662704
157	0xbd6bbc11	-0.0575524
158	0xbd6789ff	-0.056528088
159	0x3d0675e1	0.03282726
160	0x3dd3477f	0.10316371
161	0x3da06275	0.07831279
162	0x3dd7e68c	0.1054202
163	0x3ddfc685	0.109265365
164	0xbd050059	-0.032471035
165	0xbd891712	-0.066938534
166	0x3c903960	0.017605484
167	0x3d4f4752	0.050605126
168	0x3d7acfc6	0.061233304
169	0xbddc358c	-0.10752401
170	0x3dc2ce2f	0.09511983
171	0x3e4de303	0.2010613
172	0xbdf8b5e5	-0.12144069
173	0xbd2ceed4	-0.04221995
174	0xbe70b6ed	-0.2350728
175	0xbdd71f24	-0.105039865
176	0xbdcba4bb	-0.09943529
177	0xbe08a138	-0.1334275
178	0x3dea67fe	0.11445616
179	0xbd8de4b9	-0.06928391
180	0xbe3c8b15	-0.1841243
181	0xbd05fe69	-0.032713328
182	0xbc73e4d1	-0.014886097
183	0x3db3425a	0.0875289
184	0x3ddba080	0.10723972
185	0x3d936f31	0.071989425
186	0x3db7de60	0.089779615
187	0xbe03ed92	-0.12883595
188	0x3cbeadca	0.023276228
189	0x3da8f393	0.08249583
190	0xbcf3eeda	-0.02977698
191	0x3e30b447	0.1725627
192	0x3d928624	0.071544915
193	0xbe45481d	-0.1926579
194	0xbdfd0026	-0.12353544
195	0xbd7576a3	-0.059927594
196	0x3e40f7c1	0.1884451
197	0x3d376d12	0.044781752
198	0x3cdcaf79	0.02693914
199	0x3d9f8b6e	0.07790266
200	0xbb0cc439	-0.0021479263
201	0x3d7b1755	0.061301548
202	0xbdc50320	-0.09619737
203	0x3d80fb32	0.06297912
204	0xbc3972ce	-0.0113188755
205	0x3d9a0094	0.075196415
206	0x3ce363c8	0.02775754
207	0xbe5e92b5	-0.21735652
208	0x3e0c9631	0.13729168
209	0x3e19df98	0.150267
210	0x3d35a93c	0.044350848
211	0xbc25fa5e	-0.010130493
212	0xbd963690	-0.07334626
213	0x3e0cdbf0	0.13755774
214	0xbcd21812	-0.025646243
215	0x3cc01823	0.02344901
216	0x3d26b8d1	0.0407036
217	0x3c8c4712	0.017123733
218	0xbdd7dbb5	-0.10539953
219	0xbd50e67b	-0.051001053
220	0x3d8b4b88	0.06801516
221	0x3e3183d3	0.17335443
222	0x3ca46b88	0.020070806
223	0xbe65f05e	-0.22454974
224	0x3d96ec6b	0.07369312
225	0x3ec48a12	0.3838659
226	0xbdc7ac32	-0.097496405
227	0xbd78032b	-0.060549896
228	0xbe809a35	-0.2511765
229	0x3e1f6208	0.1556474
230	0xbbdce0c6	-0.0067406623
231	0xbcc519de	-0.024060186
232	0x3d934e4b	0.071926676
233	0xbd291821	-0.041282777
234	0x3d211e72	0.039335676
235	0x3d714160	0.058900237
236	0x3e07af4f	0.13250469
237	0xbe04726c	-0.12934273
238	0x3e762ef5	0.2404135
239	0x3e021991	0.12705065
240	0xbba1b427	-0.004934806
241	0x3def3075	0.11679164
242	0xbccebbda	-0.025236059
243	0xbd015d13	-0.031582903
244	0xbe0bf49f	-0.13667534
245	0x3d960769	0.07325632
246	0x3d876930	0.0661186
247	0xbe8d54c4	-0.27603734
248	0xbd89463a	-0.06702848
249	0x3e011435	0.12605365
250	0x38e9edb6	0.00011154583
251	0x3dbd4e0f	0.09243404
252	0xbdf17eda	-0.11791773
253	0xbc3fb2c5	-0.011700337
254	0x3d1b4208	0.03790477
255	0xbdef8d7f	-0.1169691

model.2.bias f4 [128]
0	0xbd2a8ff6	-0.041641198
1	0x3de9678d	0.11396704
2	0xbdf0ad8d	-0.11751852
3	0x3c17e13b	0.009270008
4	0xbdb700a5	-0.0893567
5	0x3dcf9d13	0.101373814
6	0x3e8077dd	0.25091448
7	0x3cdf357b	0.027247181
8	0x3d875337	0.06607669
9	0xbd848b6a	-0.064719036
10	0x3d9173c9	0.071021624
11	0x3d6f2b5a	0.058390953
12	0x3d339d56	0.04385122
13	0x3d9bfa0e	0.076160535
14	0x3e81f147	0.25379393
15	0x3e35ff43	0.17773156
16	0xbb84bfcd	-0.0040511847
17	0xbc2cef8c	-0.010555159
18	0x3db8515e	0.089998946
19	0x3dcef2bd	0.101048924
20	0x3cf99a3b	0.03046905
21	0xbd8d7ba7	-0.069083504
22	0x3dbbe554	0.091746
23	0xbdd8796f	-0.105700366
24	0x3e06a70d	0.13149662
25	0x3c825f66	0.01591463
26	0x3e181355	0.14851125
27	0x3e4f8109	0.20264067
28	0x3d9f796a	0.0778683
29	0x3e20dc2c	0.15708989
30	0xbd7810cd	-0.060562897
31	0xbe23bff4	-0.15991193
32	0x3cab4286	0.020905744
33	0xbd3e1b5c	-0.04641281
34	0xbda20dea	-0.0791281
35	0xbdde3db9	-0.108516164
36	0x3d50a118	0.05093488
37	0x3df1bede	0.11803983
38	0x3c4a0cf4	0.01233219
39	0xbe0e3b0c	-0.13889712
40	0xbd9f4b9c	-0.07778093
41	0xbbc79ab2	-0.006091439
42	0x3dafa5a0	0.08576512
43	0xbd2c4749	-0.04206017
44	0xbd5433f7	-0.05180737
45	0x3d35ba45	0.044367094
46	0xbd40106c	-0.04689066
47	0xbcabad77	-0.020956738
48	0x3da08e28	0.07839614
49	0xbd17eeb9	-0.037092898
50	0x3e04394d	0.12912484
51	0x3c83d5af	0.016093103
52	0x3e2fef24	0.17181069
53	0xbda71952	-0.08159126
54	0xbcb3b4cd	-0.021936798
55	0xbd2ecaca	-0.042673863
56	0x3e74fac4	0.23923784
57	0xbc5dbae9	-0.013533332
58	0xbda54a7f	-0.080708496
59	0xbda54508	-0.08069807
60	0xbd60c565	-0.05487575
61	0x3b1f9e3f	0.0024355797
62	0x3e8b68a6	0.27228278
63	0x3de48184	0.11157516
64	0xbde11018	-0.10989398
65	0x3d15db82	0.036586292
66	0x3e204e10	0.15654778
67	0x3e1173f6	0.14204392
68	0xbdf78d68	-0.12087518
69	0x3c6c28f4	0.014414061
70	0xbdc3ce60	-0.09560847
71	0xbdcb9fb3	-0.099425696
72	0xbc8632e5	-0.01638169
73	0x3deea994	0.11653438
74	0x3d6e03f2	0.05810923
75	0x3d86c152	0.06579842
76	0x3d913540	0.07090235
77	0xbe11a862	-0.14224389
78	0x3d1285c3	0.035772096
79	0x3e2cf073	0.16888599
80	0x3cf98d0e	0.030462768
81	0xbd44970a	-0.047995605
82	0x3d909c9f	0.07061123
83	0x3d267a75	0.040644128
84	0x3e235ca5	0.1595331
85	0x3dd5c4fc	0.104379624
86	0x3e5a769f	0.21334313
87	0xbd2b39a1	-0.041803006
88	0x3daa06d2	0.08302082
89	0x3d6b83b6	0.057498656
90	0x3dd2902f	0.10281407
91	0x3d7b3422	0.061329015
92	0x3dc8c6e0	0.098035574
93	0xbd822d2d	-0.06356273
94	0xbd795e23	-0.06088079
95	0x3e4f1b75	0.20225318
96	0x3c90d4ee	0.017679658
97	0xbdd389a9	-0.10328991
98	0x3b12a388	0.0022375304
99	0xbbec7b46	-0.007216844
100	0x3d05576c	0.032554075
101	0xbd2ad8f0	-0.041710794
102	0xbdbdf89e	-0.092759356
103	0x3e008e14	0.12554199
104	0xbc26cec3	-0.010181132
105	0x3c59b999	0.013288879
106	0xbd83bfdc	-0.06433079
107	0xbd9bcc9d	-0.07607386
108	0x3d150531	0.036381904
109	0xbc960307	-0.01831199
110	0xbd96efaf	-0.07369935
111	0x3d57aa77	0.052652802
112	0x3c3ca03c	0.011512812
113	0xbd5b5197	-0.053544607
114	0xbc194cb9	-0.009356671
115	0xbdb27651	-0.08713973
116	0xbad728da	-0.0016415373
117	0x3e5e4466	0.2170578
118	0x3e0ea63d	0.13930602
119	0x3dc6b6ca	0.09702833
120	0xbdead56d	-0.11466489
121	0xbe138b93	-0.14408712
122	0x3dda097a	0.10646339
123	0x3d41eacf	0.04734307
124	0x3e703095	0.23456033
125	0x3da6167b	0.081097566
126	0x3dc3ba40	0.09557009
127	0x3e4b8da3	0.19878249

model.4.weight f4 [64, 128]
0	0x3d96c658	0.0736205
1	0x3c4902c5	0.012268727
2	0x3e244834	0.16043168
3	0xbd5edc54	-0.05440934
4	0x3dfcf5db	0.12351581
5	0xbc3d58db	-0.011556829
6	0xbdae3bf8	-0.08507532
7	0x3b93e204	0.004513027
8	0xbd7ff2a1	-0.06248725
9	0x3e0ba80a	0.1363832
10	0x3d6fe721	0.05857003
11	0x3e0f2711	0.13979746
12	0xbd37bcc2	-0.044857748
13	0x3e2a8eda	0.16656056
14	0xbdc1b8d4	-0.09459081
15	0xbce9834e	-0.028504994
16	0x3e4443a3	0.19166426
17	0x3d64643b	0.05575965
18	0xbeb04a4f	-0.34431693
19	0x3d84e46b	0.0648888
20	0x3de41ff2	0.111389056
21	0x3e0753a3	0.13215499
22	0xbe8a0f9a	-0.26965028
23	0x3df4818e	0.11938773
24	0xbd4b49f8	-0.04963109
25	0xbc0ff8ce	-0.008787347
26	0x3e3dadf3	0.18523388
27	0xbe0cf2a8	-0.13764441
28	0xbe351f35	-0.17687686
29	0xbd13e963	-0.036111247
30	0x3bb4375d	0.005499764
31	0x3b44b7a1	0.0030016678
32	0x3d2de8f0	0.042458475
33	0x3d810068	0.062989056
34	0x3e6bc6e0	0.23025084
35	0xbdf2f2e9	-0.11862738
36	0x3dfa5cf9	0.122247644
37	0x3d8a5567	0.067545705
38	0x3d1be43e	0.038059466
39	0x3e0be369	0.13660969
40	0xbd5f4648	-0.054510385
41	0xbd42ae80	-0.047529697
42	0x3db00c27	0.08596068
43	0x3e1bfd52	0.15233353
44	0x3d239ba4	0.039943352
45	0x3e1a7cc4	0.15086657
46	0x3d436e79	0.047712777
47	0xbdcfda6a	-0.10149081
48	0xbd5ebeca	-0.05438117
49	0x3d1f586e	0.038902692
50	0x3dc380ed	0.09546075
51	0x3e17fcfb	0.14842598
52	0xbd847ad1	-0.06468738
53	0x3d2c0695	0.041998465
54	0x3da94ea6	0.08266954
55	0xbc6a5bdb	-0.014304127
56	0xbeb7cb8f	-0.3589749
57	0xbc6a65e2	-0.014306517
58	0x3e17fd48	0.14842713
59	0xbd44a815	-0.048011858
60	0xbe096226	-0.13416347
61	0xbd3e5293	-0.046465468
62	0xbdc1632c	-0.09442744
63	0x3dcb4a6e	0.09926306
64	0x3d085363	0.03328265
65	0xbe13e931	-0.14444424
66	0xbdd3d2be	-0.1034293
67	0xbe9fc9f4	-0.31208766
68	0xbdd69397	-0.10477369
69	0xbe4dbfc7	-0.20092689
70	0xbcf6eb9b	-0.030141642
71	0xbe62eb4c	-0.22160071
72	0xbd98916b	-0.07449611
73	0x3d129ccc	0.035794064
74	0xbda3774d	-0.07981739
75	0xbd1f5299	-0.03889713
76	0x3de97324	0.113989145
77	0x3d9dc1a9	0.07702953
78	0x3c58959e	0.013219265
79	0xbe1d4854	-0.15359622
80	0xbe0a2258	-0.13489664
81	0xbb8db3b8	-0.0043244027
82	0xbbe08cf5	-0.006852741
83	0x3cfa969b	0.030589392
84	0xbe39bab4	-0.18137628
85	0x3d79ca4d	0.060983945
86	0xbdd81051	-0.10549987
87	0x3c91fe89	0.017821567
88	0xbc9e3193	-0.019310748
89	0xbcd04e92	-0.02542809
90	0x3de95d01	0.11394692
91	0xbd4f67dc	-0.050636157
92	0xbe5652cc	-0.20930022
93	0xbd607cb2	-0.05480642
94	0xbce40011	-0.027832063
95	0x3dbbd793	0.09171977
96	0xbe0b719a	-0.13617554
97	0xbdca2f29	-0.09872276
98	0x3e11ea64	0.14249569
99	0xbd199b57	-0.03750166
100	0x3e7b2435	0.2452553
101	0x3db079b4	0.08616963
102	0x3e128a2e	0.14310524
103	0xbb0a095c	-0.0021062708
104	0x3cdb751b	0.026789239
105	0xb9b34f9b	-0.0003420085
106	0xbea6f8d5	-0.3261172
107	0xbd12553f	-0.03572583
108	0x3bc2a7d3	0.0059404164
109	0xbdc033e1	-0.09384895
110	0xbcf081bf	-0.029358743
111	0x3e37fdd5	0.17967923
112	0x3e0efb4c	0.1396305
113	0x3db660d9	0.08905191
114	0x3e0eb298	0.13935316
115	0xbaf7d521	-0.0018908122
116	0xbe8c32d0	-0.27382517
117	0xbdb88c85	-0.09011177
118	0x3bc2b1e0	0.0059416145
119	0xbc5aaf61	-0.013347478
120	0xbe76a632	-0.24086836
121	0x3db423dd	0.08795903
122	0xbeab06df	-0.3340368
123	0xbe22b57d	-0.15889545
124	0xbe757d79	-0.23973645
125	0x3dc3eb22	0.095663324
126	0x3e14539f	0.14485024
127	0x3bd0599a	0.0063583376
128	0x3da9557c	0.08268258
129	0x3e1599ac	0.14609402
130	0xbddf0572	-0.108897105
131	0xbd4394c1	-0.047749285
132	0x3db1689e	0.08662532
133	0xb9424a6f	-0.0001852901
134	0x3dfa5700	0.12223625
135	0xbd8b0e9e	-0.067898974
136	0xbdd10a81	-0.102070816
137	0xbe27568c	-0.16341609
138	0xbc417a31	-0.011808918
139	0x3db7a536	0.08967058
140	0xbd08988c	-0.033348605
141	0xbd5d8bd3	-0.054088425
142	0x3d03abed	0.032146383
143	0xbdb89f2b	-0.09014734
144	0x3e09e821	0.13467456
145	0x3c9b6578	0.018969283
146	0xbc71c714	-0.014756937
147	0x3e06e404	0.13172919
148	0x3df262b9	0.11835236
149	0x3deecb01	0.11659814
150	0xbca400fd	-0.020020002
151	0xbe297e3f	-0.16552065
152	0xbdda4f16	-0.10659616
153	0x3d76a144	0.06021239
154	0x3dae4abd	0.08510349
155	0x3d732915	0.05936535
156	0xbcb4ef71	-0.02208683
157	0x3da26d29	0.07930977
158	0xbd9c04ef	-0.076181285
159	0x3dd9fe0a	0.10644157
160	0x3df9511e	0.12173675
161	0xbeaa77ab	-0.33294424
162	0x3d6f7969	0.058465395
163	0xbe049a17	-0.12949406
164	0xbd88c2a8	-0.06677753
165	0x3c268d20	0.010165483
166	0xbd429455	-0.04750474
167	0x3c932892	0.017963681
168	0xbdb1f097	-0.08688467
169	0x3d2028bc	0.039101347
170	0x3e4c0a13	0.19925718
171	0xbd9ed9d6	-0.07756393
172	0xbd42c0ca	-0.04754714
173	0x3e49a1fa	0.19690695
174	0x3d02b1a2	0.031907685
175	0xbd80cac6	-0.06288676
176	0x3e07884a	0.13235584
177	0xbe522f37	-0.20525824
178	0x3da57ba4	0.08080223
179	0x3df5188f	0.11967575
180	0x3d582bc7	0.052776124
181	0xbcd765eb	-0.026293715
182	0x3e5111f4	0.20417005
183	0xbd323c75	-0.043514688
184	0x3dacec47	0.08443504
185	0xbd5d1e19	-0.05398378
186	0x3de64f4b	0.11245593
187	0xbdc6eed5	-0.09713522
188	0xbda97f6a	-0.082762554
189	0xbe635ffd	-0.22204585
190	0xbc63e86e	-0.013910396
191	0x3d910dd0	0.07082713
192	0xbe1fd9fb	-0.15610497
193	0x3d9bc126	0.076051995
194	0xbc2bd62a	-0.010488072
195	0xbdf04dc4	-0.117335826
196	0xbe2a9419	-0.16658057
197	0xbe822160	-0.25416088
198	0x3a43b5ad	0.00074657315
199	0xbd479125	-0.048722405
200	0x3d40ed95	0.047101576
201	0x3c6726bf	0.014108359
202	0xbbf291ca	-0.0074026333
203	0xbdcb7737	-0.09934848
204	0xbd6f73e1	-0.05846012
205	0x3d5b539e	0.05354654
206	0x3d4f3507	0.05058768
207	0x3d72aa9e	0.059244744
208	0x3de93ff6	0.11389153
209	0xbbd640a9	-0.00653847
210	0x3be22e1c	0.0069024693
211	0x3d452c13	0.048137736
212	0xbd1a3e2e	-0.037656955
213	0x3e05aa4f	0.13053249
214	0x3dc2a2ac	0.095036834
215	0x3d8a95eb	0.06766876
216	0x3d17346a	0.03691522
217	0x3da11ebe	0.07867192
218	0xb980eb60	-0.0002458943
219	0x3e06bd8f	0.13158248
220	0x3bb37860	0.0054769963
221	0x3d85ba2c	0.0652965
222	0x3ca4772e	0.02007636
223	0x3e20e590	0.15712571
224	0x3be82f91	0.0070857485
225	0xbe1420cd	-0.14465638
226	0x3e06bf3c	0.13158888
227	0x3d93dab5	0.072194494
228	0xbe079161	-0.13239051
229	0x3cbbfe65	0.022948453
230	0xbe0e1bc6	-0.13877782
231	0x3e07bc5d	0.13255449
232	0x3b84025a	0.0040286006
233	0x3d5b6589	0.05356363
234	0xbeb39c28	-0.35080075
235	0x3daa3a04	0.08311847
236	0xbc7f67b4	-0.01558869
237	0xbc919d27	-0.017775131
238	0x3da9593e	0.08268975
239	0x3d57962b	0.052633446
240	0xbdeb334e	-0.11484395
241	0xbd9a77d2	-0.07542385
242	0xbdc60327	-0.0966857
243	0x3e8c856d	0.27445546
244	0xbe0d4307	-0.137951
245	0x3dac92f2	0.08426465
246	0x3d07ea11	0.033182207
247	0x3d36d7f4	0.044639543
248	0xbe2dedd7	-0.1698526
249	0xbdb8c9d2	-0.09022869
250	0xbd84bb2a	-0.06481011
251	0xbd965e08	-0.07342154
252	0xbcfefd7f	-0.031126736
253	0xbd834234	-0.064091116
254	0x3d86437c	0.065558404
255	0x3d835a00	0.064136505

model.4.bias f4 [64]
0	0xba5ae81f	-0.0008350629
1	0x3de810f8	0.113313615
2	0x3c74f6a9	0.0149513865
3	0x3e559500	0.2085762
4	0xbd23ad04	-0.039959922
5	0x3e5c45f5	0.21511061
6	0x3e4f8831	0.20266797
7	0xbdb9948f	-0.090615384
8	0xbddf7898	-0.10911673
9	0xbd4ca938	-0.049966067
10	0xbd7f1463	-0.0622753
11	0xbdb31bcf	-0.087455384
12	0x3c78dc25	0.015189205
13	0xbdeb2708	-0.11482054
14	0xbca46d47	-0.020071639
15	0xbcdc0355	-0.026857058
16	0x3cc4338e	0.023950364
17	0xbd48a45f	-0.04898488
18	0xbbf5d4c2	-0.0075021693
19	0xbc4a6d1c	-0.012355115
20	0x3e3d3971	0.18478943
21	0x3d1d0cba	0.038342215
22	0xbde4b1b5	-0.111667074
23	0xbdbe02e6	-0.092778966
24	0x3e4863ca	0.19569317
25	0x3dd52fa2	0.10409476
26	0xbe21ec99	-0.15812911
27	0x3dccbea9	0.09997303
28	0x3e5c600d	0.21521015
29	0x3e1c82c1	0.15284254
30	0xbd77efd0	-0.060531437
31	0xbdffc08f	-0.124878995
32	0xbdc39068	-0.09549028
33	0x3d352cc6	0.044232152
34	0xbd8e13df	-0.06937384
35	0x3d169fc9	0.036773477
36	0x3e005988	0.12534153
37	0xbde15136	-0.11001818
38	0x3e14011f	0.14453553
39	0x3c0bcaa3	0.008532199
40	0x3d4e6f15	0.050398905
41	0xbd457dbf	-0.048215624
42	0xbc06b583	-0.008221987
43	0x3d2ad3fe	0.041706078
44	0x3d9afd0b	0.07567795
45	0x3d8155c0	0.06315184
46	0x3d8b173d	0.06791542
47	0xbd968ae3	-0.07350709
48	0xbcd11464	-0.025522418
49	0x3dfb0a7c	0.12257859
50	0x3e3be34e	0.18348429
51	0x3c9ba000	0.018997192
52	0x3e05936e	0.13044521
53	0xbd63e3d5	-0.0556372
54	0x3e5e9538	0.2173661
55	0xbdb9a70d	-0.090650655
56	0x3dc0c9c0	0.09413481
57	0x3df8bb7a	0.12145133
58	0xbd25987e	-0.04042863
59	0x3e05a346	0.13050565
60	0x3ccdc4fa	0.02511834
61	0x3e44df3e	0.19225785
62	0x3dcb275e	0.09919618
63	0x3d41cce4	0.04731454

model.6.weight f4 [10, 64]
0	0x3e5032b0	0.20331836
1	0x3cb08cc6	0.021551501
2	0xbc68f19a	-0.014217759
3	0x3db89a77	0.09013837
4	0xbd7ba243	-0.06143404
5	0x3da99780	0.082808495
6	0xbdcb6bb1	-0.0993265
7	0xbe38afc3	-0.18035798
8	0x3da0a52a	0.078440025
9	0x3da721da	0.081607535
10	0xbdd71b3c	-0.105032414
11	0xbe9dd503	-0.30826578
12	0x3e13e6a2	0.14443448
13	0x3e6183d9	0.22022952
14	0xbe62a18e	-0.2213194
15	0xbe2e0f5c	-0.16998047
16	0xbe84a9f5	-0.25910917
17	0x3e5443d2	0.20728996
18	0x3e540e45	0.20708568
19	0x3ddc0fcd	0.10745201
20	0xbd759119	-0.05995283
21	0xbe2ba5ef	-0.16762517
22	0xbe893d0c	-0.26804388
23	0xbe0dd985	-0.13852508
24	0xbdeb0010	-0.11474621
25	0xbdf43f67	-0.119261555
26	0x3e058c10	0.13041711
27	0x3daa2e9c	0.08309671
28	0xbd931a92	-0.07182802
29	0xbda6c69a	-0.08143349
30	0x3ca60fbd	0.020271176
31	0xbe3328cd	-0.17496033
32	0xbb3e7229	-0.0029059744
33	0xbe989f1a	-0.29808885
34	0xbc0985aa	-0.008393684
35	0xbd77cdd8	-0.060499042
36	0xbe41849a	-0.1889824
37	0x3d2d3ee2	0.042296298
38	0x3d61704d	0.05503874
39	0xbe5ae5ed	-0.21376772
40	0xbdde2e93	-0.10848727
41	0x3d5f356d	0.05449431
42	0xbd5cd060	-0.05390966
43	0x3e2ef3f6	0.17085251
44	0xbd9c0aed	-0.076192714
45	0x3d8bbbdb	0.0682294
46	0x3d7cb7a4	0.06169857
47	0x3e0e6b61	0.1390815
48	0x3e6829ea	0.22672239
49	0xbe3e6f88	-0.18597233
50	0xbe8c5511	-0.2740865
51	0xbcbf70c8	-0.023369208
52	0xbe918c12	-0.28427178
53	0xbd880fab	-0.066436134
54	0x3dd26ed2	0.102750435
55	0x3d91dd0e	0.07122241
56	0xbd6ff814	-0.058586195
57	0xbe2bb016	-0.1676639
58	0xbd66cc34	-0.056347087
59	0xbe063ded	-0.1310956
60	0x3d3a3e98	0.04546985
61	0xbd14add5	-0.03629859
62	0xbe7cbcc7	-0.24681388
63	0xbe519ba2	-0.20469525
64	0x3e144361	0.14478828
65	0xbd8a05e6	-0.06739406
66	0x3e43f9c8	0.19138253
67	0xbe2c81ac	-0.16846341
68	0xbe1ed509	-0.15510954
69	0xbd9eaae3	-0.07747438
70	0xbe04174e	-0.12899515
71	0x3c364d00	0.011126757
72	0xbd0337fe	-0.03203582
73	0xbe418fb7	-0.18902479
74	0xbd84d526	-0.06485967
75	0x3e757ed9	0.2397417
76	0xbe5d0c28	-0.21586668
77	0x3e361faf	0.17785524
78	0xbd26a115	-0.040680964
79	0xbe28ccc5	-0.16484363
80	0xbc793311	-0.015209929
81	0xbd1bde47	-0.038053777
82	0x3e2e18be	0.17001626
83	0xbe8af54f	-0.2714028
84	0xbcf14a46	-0.029454362
85	0x3d387d22	0.04504121
86	0xbde179d9	-0.11009569
87	0x3e811c12	0.25216728
88	0xbcb0faba	-0.02160393
89	0xbe59b96d	-0.2126214
90	0x3d342466	0.043980025
91	0xbe67d768	-0.22640765
92	0xbcf304ff	-0.029665468
93	0x3dc1d663	0.09464719
94	0x3d8db4bf	0.0691924
95	0xbdf6bfd2	-0.120483056
96	0xbce7bfd0	-0.028289706
97	0x3ddcb5ab	0.10776838
98	0x3e1d46b7	0.15359007
99	0xbe0fd913	-0.14047651
100	0xbe5ee33e	-0.21766374
101	0xbde29f4e	-0.11065541
102	0x3df7e6ec	0.12104592
103	0x3e1e037f	0.15431021
104	0xbe30faa9	-0.1728312
105	0x3e4c692c	0.19961995
106	0xbe2dc4f4	-0.16969663
107	0xbe179651	-0.14803435
108	0xbdf013d2	-0.117225304
109	0xbe28611f	-0.16443299
110	0x3dabe5a2	0.08393408
111	0xbd97f5a3	-0.07419898
112	0xbd406c53	-0.046978306
113	0xbe417102	-0.18890765
114	0xbc2423c3	-0.010018292
115	0xbe82a6ea	-0.2551797
116	0x3dea8437	0.11450999
117	0x3dac9958	0.084276855
118	0xbe40e8bb	-0.1883878
119	0x3d2d0ac5	0.0422466
120	0x3ead568f	0.338551
121	0xbe001369	-0.12507404
122	0x3d8f0909	0.06984145
123	0xbe3d3264	-0.18476254
124	0x3df9945b	0.121865
125	0xbe6cd832	-0.23129347
126	0x3e2f46ec	0.17116898
127	0x3dd63083	0.104584716
128	0x3df49c60	0.11943889
129	0x3cacf3da	0.021112371
130	0xbe51de26	-0.20494899
131	0x3e3919dc	0.18076271
132	0xbe066ebf	-0.13128184
133	0xbe821e9c	-0.25413978
134	0x3d133246	0.035936616
135	0xbcbd0fea	-0.023078877
136	0x3e3a1f0a	0.18175903
137	0x3d15133a	0.03639529
138	0x3c83cb21	0.01608807
139	0x3d7a20f9	0.0610666
140	0xbd43456c	-0.047673628
141	0xbe295906	-0.16537866
142	0xbe2c6334	-0.16834718
143	0xbcc8e62c	-0.024523817
144	0x3e2c41aa	0.16821924
145	0xbd9c7a72	-0.07640542
146	0xbd1df700	-0.038565636
147	0x3df55f65	0.11981086
148	0xbdd9b214	-0.10629669
149	0x3e15e585	0.14638336
150	0xbd93f15e	-0.072237715
151	0x3e2c5c30	0.16832042
152	0xbdcbb2ac	-0.09946188
153	0xbe97eca5	-0.29672733
154	0xbce780c7	-0.028259648
155	0xbd0815fc	-0.03322409
156	0xbe748a3a	-0.23880854
157	0xbe9edc58	-0.31027484
158	0xbe10c07b	-0.14135925
159	0xbc2cbc18	-0.010542892
160	0x3d33d312	0.043902464
161	0x3dd64f25	0.10464314
162	0xbe34307f	-0.17596625
163	0x3e0fe3c1	0.14051725
164	0x3deaef58	0.114714324
165	0xbd8aa163	-0.06769063
166	0xbdb13707	-0.08653074
167	0xbe71ceb6	-0.2361401
168	0x3d87926c	0.06619725
169	0x3b7d0100	0.0038605332
170	0xbe958948	-0.292063
171	0xbcd67081	-0.026176693
172	0xbdd464d2	-0.103707924
173	0x3db0023f	0.085941784
174	0xbd90bebc	-0.0706763
175	0x3e0559ae	0.13022491
176	0xbe6b0208	-0.22949994
177	0xbe0ff38a	-0.14057747
178	0xbe1fcfe0	-0.15606642
179	0x3e638a0a	0.22220626
180	0x3dff3a72	0.124623194
181	0x3d7f6974	0.062356427
182	0x3c33eff3	0.010982501
183	0x3d85413d	0.06506584
184	0xbe6d324f	-0.23163722
185	0xbe5b4f3c	-0.21416944
186	0x3cbb35fc	0.02285289
187	0x3dda2b0e	0.10652743
188	0xbcef68e1	-0.029224815
189	0x3dcfda3a	0.10149045
190	0xbe4c4545	-0.19948299
191	0x3d424b7f	0.04743528
192	0xbe5d18b2	-0.21591452
193	0xbdabcacc	-0.0838829
194	0xbe9227da	-0.2854603
195	0xbcb5fdbf	-0.022215722
196	0xbcdc340d	-0.026880288
197	0xbe6c1e20	-0.23058367
198	0x3d31808a	0.043335475
199	0xbc73db35	-0.014883806
200	0xbdf5a257	-0.119938545
201	0xbd1821d5	-0.03714164
202	0xbddc3eb9	-0.10754151
203	0xbeea2006	-0.45727557
204	0x3c74f10a	0.014950046
205	0x3e2f8af6	0.17142853
206	0xbccd4358	-0.025056526
207	0xbed32cfd	-0.4124526
208	0xbe309776	-0.17245278
209	0xbe50f49b	-0.2040581
210	0xbdad71a0	-0.08468938
211	0xbe31aee2	-0.17351869
212	0x3dfa2e58	0.122158706
213	0xbaeee2e1	-0.0018225574
214	0xbe0f914e	-0.14020273
215	0xbe193ec8	-0.14965355
216	0x3cfb1734	0.030650713
217	0xbe60c0c5	-0.21948536
218	0x3d5f6eea	0.054549135
219	0x3df9254c	0.12165317
220	0xbe8df8c0	-0.27728844
221	0xbd46f75e	-0.04857575
222	0x3e219d9f	0.15782784
223	0xbdb645fa	-0.08900066
224	0x3d2eccdb	0.042675834
225	0x3dc61372	0.09671678
226	0x3e29c514	0.16579086
227	0x3e0ba44d	0.13636895
228	0x3de1e589	0.110301085
229	0x3e3c7699	0.18404616
230	0xbd0a9de0	-0.033841968
231	0x3dc5f6d4	0.09666219
232	0xbe82cb26	-0.25545615
233	0xbdf0b981	-0.11754132
234	0xbe62d868	-0.22152865
235	0xbd8e2b37	-0.06941836
236	0xbd5a2f30	-0.053267658
237	0xbca470f5	-0.020073393
238	0xbdfe35b0	-0.12412584
239	0xbdae95b5	-0.08524648
240	0xbe69732e	-0.22797844
241	0x3dbc42c2	0.091924205
242	0xbdae4702	-0.085096374
243	0xbbb8ec86	-0.00564343
244	0xbd419c26	-0.047268055
245	0x3d5ab3f6	0.05339428
246	0x3e35e7f1	0.1776426
247	0xbe093c0b	-0.13401811
248	0xbe8ca30b	-0.27468142
249	0xbd8874c2	-0.06662895
250	0x3e03fd60	0.12889624
251	0xbdd8fbf4	-0.10594931
252	0x3e24b250	0.16083646
253	0xbdc147ca	-0.09437521
254	0xbe65e0da	-0.22449055
255	0x3e547801	0.20748903

model.6.bias f4 [10]
0	0xbd860f1e	-0.06545852
1	0xbdafe587	-0.08588701
2	0xbc70d2bd	-0.014698681
3	0xbd6a2594	-0.057164744
4	0x3dd294da	0.102822974
5	0x3cbb2e88	0.022849336
6	0xbcfc3a03	-0.03078938
7	0xbdce0ec4	-0.1006141
8	0x3e2c27d4	0.16812068
9	0xbcbc3ad1	-0.022977265
